Hybrid/Models/CL1BTapePreamp__lstm_8.onnx (onnx, 4502 bytes, 8 tensors)

film_layer.bias f4 [16]
0	0xbba90b52	-0.00515882
1	0xbe89e4ba	-0.26932317
2	0xbe12a3b7	-0.14320265
3	0x3f17c0c6	0.59278524
4	0xbeef191d	-0.46698847
5	0x3f37fdc5	0.71871597
6	0x3e91007f	0.2832069
7	0x3eb2dab4	0.34932482
8	0x3e0db7c7	0.13839637
9	0x3e192ad5	0.14957745
10	0xbebd2f0b	-0.36949953
11	0xbdfd80e1	-0.12378097
12	0xbd756f3f	-0.059920546
13	0x3eb468eb	0.35236296
14	0x3d377ec9	0.044798646
15	0x3e96bfd2	0.29443222

glu.bias f4 [16]
0	0x3dae5a64	0.085133344
1	0x3e0b254c	0.13588446
2	0xbd68c700	-0.056830406
3	0x3c7e6ab0	0.015528366
4	0x3e40d12b	0.18829791
5	0x3e007efc	0.1254844
6	0xbbdf4262	-0.0068133334
7	0xbe0c0520	-0.1367383
8	0x3ea77ec5	0.32713905
9	0x3e5a40f2	0.21313837
10	0x3e182be1	0.14860488
11	0xbe473555	-0.19453938
12	0xbe85ff70	-0.26171446
13	0xbe9b04d3	-0.30277118
14	0x3e5f961f	0.2183461
15	0xbe1f2fe7	-0.15545617

onnx::LSTM_117 f4 [1, 32, 1]
0	0xbef7998f	-0.48359343
1	0x3f2033db	0.62579125
2	0x3ecb78be	0.39740556
3	0x3d80d5cf	0.06290781
4	0xbeaa6049	-0.33276585
5	0x3e88cb4e	0.2671761
6	0xbf970c5b	-1.1800646
7	0xbfb73957	-1.4314374
8	0x3e208275	0.15674765
9	0x3d9c0748	0.07618576
10	0x3f130612	0.5743114
11	0x3f18a39c	0.5962465
12	0xbde324ff	-0.11091041
13	0x3ef1057c	0.47074497
14	0xbf732d47	-0.9499096
15	0xbf515735	-0.8177369
16	0xbf2a139e	-0.66436183
17	0xbe73bbae	-0.23802063
18	0x3ea9988f	0.33124205
19	0x3f632279	0.88724476
20	0xbf4d8a6d	-0.80289346
21	0xbf2e1581	-0.6800156
22	0xbec8a22e	-0.39186233
23	0xbf7bd355	-0.9836934
24	0xbd0932a2	-0.033495553
25	0x3ea245cb	0.31693873
26	0xbed92e24	-0.42418015
27	0xbfade162	-1.3584406
28	0x404154d3	3.0208023
29	0x3f1939ed	0.5985401
30	0xbf7dd742	-0.9915658
31	0xc00e2d38	-2.22151

onnx::LSTM_118 f4 [1, 32, 8]
0	0x3e720aca	0.23636928
1	0xbe637739	-0.22213449
2	0xbd4aad6e	-0.0494818
3	0x3f3ecdea	0.7453295
4	0xbe9b491c	-0.30329216
5	0xbf08daab	-0.5345866
6	0xbd55c91c	-0.052193746
7	0xbe60959e	-0.21932074
8	0x3ea31394	0.31850874
9	0x3e9ebf53	0.31005344
10	0x3d278748	0.0409005
11	0xbeb335f1	-0.35002092
12	0x3ebbd893	0.3668867
13	0x3ea9c884	0.33160794
14	0xbd90f9ae	-0.070788726
15	0xbeae575f	-0.34051034
16	0xbd90027d	-0.070317246
17	0x3ec5655a	0.38553888
18	0xbdeed180	-0.11661053
19	0xbe40f3e6	-0.1884304
20	0xbe8d7f80	-0.27636337
21	0xbb9f65e7	-0.0048644426
22	0xbd5a5345	-0.05330207
23	0x3ede81c5	0.4345838
24	0xbf947ea1	-1.1601144
25	0x3f47a1bc	0.7798116
26	0xbf651853	-0.8949024
27	0xbeb50b4a	-0.35360175
28	0xbeb8d520	-0.361001
29	0xbd05a663	-0.032629382
30	0x3f8c3fac	1.0956931
31	0x3f9f8831	1.2463437
32	0xbe1dd7a1	-0.15414287
33	0x3f7a8e34	0.97873235
34	0xbf75f192	-0.9607173
35	0xbe44d0b1	-0.19220234
36	0xbf1b11c3	-0.6057398
37	0xbdc65bbf	-0.09685468
38	0x3f202048	0.6254926
39	0x3f866ff8	1.050292
40	0xbd581064	-0.052750006
41	0x3f14c463	0.5811216
42	0xbe8cd0c9	-0.2750304
43	0xbeb17397	-0.346585
44	0xbe738f2a	-0.23785082
45	0x3d97271a	0.07380505
46	0x3e24a950	0.16080213
47	0x3f66af3a	0.90111125
48	0x3ed98484	0.42483914
49	0x3e7a6912	0.24454144
50	0x3e85c06c	0.2612337
51	0xbebf3b4e	-0.37349933
52	0x3e5576fc	0.2084617
53	0xbecc44ff	-0.3989639
54	0x3e6f403c	0.23364347
55	0xbe163b39	-0.14671029
56	0xbe1e816b	-0.15479057
57	0xbe8522b9	-0.26003054
58	0xbe1b1c9f	-0.15147637
59	0x3f84e3ab	1.0381979
60	0xbe26b13d	-0.16278549
61	0x3d2ce770	0.042212903
62	0x3eef6757	0.4675853
63	0xbe0dfaa3	-0.13865142
64	0x3dbb948e	0.09159194
65	0xbd0f9aaf	-0.035059627
66	0xbc94acf9	-0.018148886
67	0x3edc3aab	0.4301351
68	0xbe168439	-0.14698876
69	0xbe3f4a9f	-0.1868081
70	0x3e799804	0.24374396
71	0x3c3eb191	0.011639015
72	0xbe8466b3	-0.25859603
73	0x3e99b915	0.3002402
74	0xbcaedb00	-0.021344662
75	0xbb9d024e	-0.0047915345
76	0xbe8fd926	-0.2809536
77	0xbe1f70dc	-0.15570396
78	0x3eb786e5	0.35845104
79	0x3ec0dcea	0.37668544
80	0x3e00ef7c	0.12591356
81	0x3ea23443	0.31680498
82	0x3d4cce26	0.050001286
83	0x3e87cb0f	0.2652211
84	0x3d465703	0.048422825
85	0x3d65f6cc	0.056143567
86	0x3ea332d7	0.31874725
87	0x3dbf81ad	0.093509056
88	0xbf1e88c6	-0.6192745
89	0x3f39cb56	0.7257589
90	0xbf38d37e	-0.7219771
91	0xbe9c0ec0	-0.30480003
92	0xbdbfd6fd	-0.09367178
93	0x3ec74952	0.38923126
94	0x3f272a07	0.65298504
95	0x3f54cc33	0.83124083
96	0xbe92bd73	-0.28660163
97	0x3f55ee90	0.8356714
98	0xbf2f9ffa	-0.6860348
99	0x3cb4011f	0.02197319
100	0xbf39b758	-0.72545385
101	0xbed1a175	-0.40943494
102	0x3e61af1b	0.22039454
103	0x3fb16736	1.3859622
104	0xbe8f4dd3	-0.27989063
105	0x3f25f2b5	0.64823467
106	0xbe9eaebc	-0.30992687
107	0xbe53da21	-0.20688678
108	0xbf082c65	-0.5319274
109	0x3cb02650	0.021502644
110	0x3de71a1b	0.11284276
111	0x3fa3c835	1.2795473
112	0xbdeceef9	-0.11569018
113	0x3eb8147c	0.35953128
114	0xbe8ddc13	-0.27706966
115	0xbe953d71	-0.2914844
116	0xbdd178e6	-0.10228138
117	0xbe4e48c2	-0.20144942
118	0x3f0dd81b	0.55407876
119	0xbc8e7b99	-0.01739292
120	0xbdc42972	-0.095782176
121	0xbe1809cd	-0.14847489
122	0xbdf9322d	-0.121677734
123	0x3f1b7a78	0.6073375
124	0xbeb61178	-0.35560203
125	0xbe2a20d1	-0.16614081
126	0x3ed144db	0.40872845
127	0x3da05c4e	0.07830106
128	0xbe49e7e0	-0.1971736
129	0x3e5f08c7	0.21780692
130	0xbea7e494	-0.3279158
131	0x3f115fce	0.5678681
132	0xbea7c8b9	-0.32770327
133	0xbeb3381b	-0.35003743
134	0x3da91eb7	0.082578115
135	0x3d2a789c	0.04161893
136	0xbebc8a4f	-0.3682427
137	0x3f71daa1	0.94474226
138	0xbf0fcfb8	-0.5617633
139	0xbea894cd	-0.32926026
140	0xbebbb667	-0.366626
141	0x3ce18598	0.027529523
142	0x3f1a34d9	0.6023689
143	0x3ef179f8	0.47163367
144	0xbec78f1f	-0.3897638
145	0x3f1edb78	0.6205363
146	0xbeb53a81	-0.35396197
147	0x3de70744	0.11280683
148	0xbe8d90ea	-0.27649623
149	0x3e24c310	0.16090035
150	0x3d5471e0	0.051866412
151	0x3f09d343	0.53837985
152	0x3ea8807c	0.32910526
153	0xbe6bbe77	-0.23021875
154	0xbd7d681a	-0.061866857
155	0xbf0e391d	-0.555559
156	0x3dfe4613	0.12415709
157	0x3f482f1a	0.7819687
158	0xbe87ff18	-0.2656181
159	0xbb81407b	-0.0039444542
160	0x3d1a74f4	0.03770919
161	0x3e77b1b6	0.24188885
162	0xbe842e24	-0.25816453
163	0x3eb94478	0.3618505
164	0xbeb772cd	-0.35829774
165	0x3e843065	0.25818172
166	0xbe8fe7e1	-0.28106597
167	0xbda718cc	-0.081590265
168	0xbca2fa2b	-0.01989468
169	0x3e80374f	0.25042197
170	0xbdf7bd3c	-0.120966405
171	0x3e98241d	0.29715052
172	0xbe268253	-0.16260652
173	0xbd7bf58d	-0.061513472
174	0xbe5f13d9	-0.21784915
175	0x3e97f368	0.29677892
176	0xbe0ed0aa	-0.13946787
177	0x3eaafdbb	0.33396706
178	0xbe524b61	-0.20536567
179	0xbf52eab0	-0.82389355
180	0x3dc375d6	0.0954396
181	0x3c3a2fc6	0.011363929
182	0x3f0af9c5	0.5428737
183	0xbdeb361d	-0.11484931
184	0x3ddcb716	0.10777108
185	0xbf71cb01	-0.94450384
186	0xbd588806	-0.052864097
187	0x3f82ebca	1.0228207
188	0x3dbb8131	0.09155501
189	0x3e99d434	0.3004471
190	0x3d99e69b	0.07514688
191	0xbe6aa785	-0.22915466
192	0x3ea2df2c	0.31810892
193	0xbebe4c8e	-0.37167782
194	0x3e5349b5	0.20633586
195	0xbe1cef15	-0.15325578
196	0x3e8c9a68	0.27461553
197	0x3dbf981c	0.093551844
198	0xbea8918b	-0.3292354
199	0xbf218185	-0.63088256
200	0xbd869ad9	-0.065725036
201	0x3ebc51e0	0.36781216
202	0xbe1746d0	-0.14773107
203	0xbe9ae18f	-0.30250213
204	0xbc84aece	-0.016196635
205	0xbe84c549	-0.25931767
206	0x3d732c76	0.059368573
207	0x3d94b1ea	0.07260497
208	0x3e5ef6a9	0.21773781
209	0xbe99ad4c	-0.30015028
210	0x3d289eaa	0.04116694
211	0x3da66d16	0.08126275
212	0x3ed12132	0.4084564
213	0xbca4d6e8	-0.020122007
214	0x3db2a742	0.08723308
215	0xbe857fdb	-0.26074108
216	0x3da65a90	0.08122742
217	0xbebf5cd9	-0.37375525
218	0x3d13a287	0.03604367
219	0xbe9ed777	-0.31023762
220	0xbbe80914	-0.0070811603
221	0x3e625816	0.22103915
222	0xbdd9d46c	-0.106362194
223	0xbc19f1fb	-0.009396072
224	0xbd3f19af	-0.046655353
225	0xbe26036f	-0.16212247
226	0xbe2882cf	-0.1645615
227	0xbf0a123f	-0.5393409
228	0xbd8277c8	-0.06370503
229	0x3dacc8c9	0.08436734
230	0xbe4ec3e3	-0.20191912
231	0xbe0bf9f8	-0.13669574
232	0xbe4a141d	-0.19734235
233	0xbe3cd818	-0.18441808
234	0xbe33100a	-0.17486587
235	0xbe945b51	-0.2897592
236	0x3e9501e0	0.29102993
237	0x3d2c2a07	0.042032268
238	0xbe009c00	-0.1255951
239	0x3d925e49	0.0714689
240	0xbd19d3e9	-0.03755561
241	0xbcaad245	-0.020852217
242	0xbb5dfdbb	-0.003387316
243	0xbf041e95	-0.51609164
244	0x3e193824	0.14962822
245	0x3ea174e0	0.3153448
246	0x3eaed4ab	0.34146628
247	0x3e273dd5	0.16332181
248	0xbe73c9aa	-0.23807397
249	0xbddcad45	-0.10775236
250	0xbdcc7a81	-0.09984303
251	0x3ea27fe4	0.31738198
252	0xbe00dfc8	-0.12585366
253	0x3e866867	0.26251528
254	0x3edb240f	0.42800948
255	0x3e55a692	0.20864323

onnx::LSTM_119 f4 [1, 64]
0	0x3d4328a0	0.047646165
1	0xbe31ec40	-0.17375278
2	0x3da0dad4	0.07854238
3	0x3f0b7ffa	0.5449215
4	0x3f7df7f6	0.99206483
5	0x3e861683	0.2618905
6	0xbdfafc03	-0.12255099
7	0x3ec8b9c3	0.39204225
8	0xbd8b961c	-0.068157405
9	0x3e593806	0.21212777
10	0x3d8f820f	0.070072286
11	0x3f5367c1	0.8258019
12	0x3f2f522b	0.68484753
13	0x3e9d0814	0.30670226
14	0x3e3c5b10	0.18394113
15	0x3f0f5f57	0.5600485
16	0x3eb61609	0.35563686
17	0x3f02532a	0.5090815
18	0x3e15b6fa	0.14620581
19	0xbdb9ce0a	-0.09072502
20	0xbd695476	-0.056965314
21	0x3c0e50ea	0.008686284
22	0x3e9fd735	0.31218877
23	0x3e9972db	0.2997044
24	0x3de03aa8	0.10948688
25	0xbdc7f103	-0.09762766
26	0xbe8d8ad0	-0.27644968
27	0xbd8f7ff6	-0.070068285
28	0x3e3fcc9a	0.18730393
29	0xbbf5842a	-0.007492562
30	0xbd9ff9d6	-0.07811324
31	0xbd77535c	-0.060382232
32	0x3d84c791	0.06483377
33	0x3cd7a7f6	0.026325207
34	0x3e0daf69	0.13836445
35	0x3f26ca99	0.6515289
36	0x3f1fd6b4	0.62436986
37	0x3e849e7c	0.25902164
38	0x3d57fb6e	0.052730016
39	0x3e7c6bb0	0.24650455
40	0xbe04000d	-0.12890644
41	0x3e8e6b2f	0.2781615
42	0x3e218357	0.15772758
43	0x3f792d54	0.9733479
44	0x3f261d2a	0.6488825
45	0x3e8f5777	0.27996418
46	0x3e97a7db	0.2962025
47	0x3ed7ae95	0.42125383
48	0x3e9be2ec	0.30446565
49	0x3f2d534c	0.67705226
50	0x3e8ca5ef	0.27470347
51	0x3cd12677	0.025531037
52	0xbd512bf1	-0.051067296
53	0x3dac430f	0.08411228
54	0x3f1ba193	0.6079342
55	0x3c9c6582	0.019091371
56	0xbe583fb2	-0.21118048
57	0x3d56122c	0.052263424
58	0xbce01c56	-0.027357262
59	0x3e6fcf18	0.23418844
60	0xbe3334b6	-0.17500576
61	0x3d45f036	0.048324786
62	0x3c2581ee	0.010101778
63	0x3dce7b82	0.10082151

onnx::MatMul_120 f4 [3, 16]
0	0x3ecfb535	0.40567937
1	0xbece058d	-0.4023861
2	0xbef81cee	-0.48459572
3	0x3fa4550d	1.2838455
4	0xbe8d9453	-0.27652225
5	0xbfab87ea	-1.3400853
6	0x3e078f7a	0.13238326
7	0xbf83a602	-1.0285037
8	0x3d2ecdb5	0.042676646
9	0xbea27f74	-0.31737864
10	0x3f5dd56f	0.866538
11	0xbe1194b8	-0.14216888
12	0x3e2a3297	0.16620861
13	0x3ea12050	0.31469965
14	0xbf4d711e	-0.8025073
15	0x3f2a1a4a	0.66446364
16	0x3d4df5a1	0.050283078
17	0xc0314a73	-2.770169
18	0xbf45b239	-0.7722507
19	0xbf1c5dfa	-0.61080897
20	0x3e933890	0.2875409
21	0xbf9fad57	-1.2474774
22	0x40009e94	2.0096788
23	0xbf1b9965	-0.60780936
24	0xbf72ebcb	-0.9489104
25	0xbf4007dc	-0.7501199
26	0x3e9c009a	0.3046921
27	0xbf45fdd8	-0.7734046
28	0xbdc2134a	-0.09476335
29	0x3e34b2a3	0.1764627
30	0x3da4c803	0.08045962
31	0x3e1f5574	0.15559942
32	0xbf0338c9	-0.5125852
33	0xbde70230	-0.11279714
34	0x3e981038	0.29699874
35	0x3eaad623	0.33366498
36	0xbf9c43a0	-1.2208138
37	0x3f29b152	0.66286194
38	0x3e9c9d41	0.30588725
39	0x3f12f8ab	0.5741069
40	0x3e8efad2	0.27925736
41	0x3dfc8117	0.123293094
42	0xbea07c67	-0.3134491
43	0x3e50d4e3	0.2039371
44	0xbe4e6d31	-0.2015884
45	0x3e1c3c85	0.15257461
46	0x3d1c5c02	0.038173683
47	0x3b9c6562	0.004772828

onnx::MatMul_121 f4 [8, 16]
0	0x3d97ae7a	0.07406326
1	0xbc3b9c7d	-0.011450884
2	0xbeaaa0ee	-0.33325905
3	0x3ea83058	0.32849383
4	0xbe165aa1	-0.1468301
5	0x3e9f6b89	0.3113673
6	0xbea1b2b8	-0.31581664
7	0x3d4d2dff	0.050092693
8	0x3e6ab5b4	0.22920877
9	0x3e9500af	0.29102084
10	0x3d9b58ff	0.07585334
11	0x3e54afca	0.20770183
12	0xbe86977b	-0.26287445
13	0x3d3997e3	0.045310866
14	0x3e03289d	0.12808461
15	0xbcfc6697	-0.030810637
16	0xbe162db6	-0.14665875
17	0xbe487e97	-0.1957954
18	0xbdbfbf1c	-0.09362623
19	0x3edfc46a	0.4370454
20	0xbdc00e26	-0.093776986
21	0x3e98b6a4	0.29826844
22	0xbe8d52cc	-0.27602232
23	0x3e22f29b	0.15912859
24	0x3ec15205	0.37757888
25	0x3db08a1e	0.08620094
26	0x3e9ff29f	0.31239793
27	0x3e1deacb	0.15421598
28	0xbe9c1359	-0.3048351
29	0xbeb79f72	-0.35863835
30	0xbe7c59fd	-0.24643703
31	0xbde62059	-0.112366386
32	0xbd16ff5b	-0.03686462
33	0xbe4c6c54	-0.19963199
34	0x3eea973f	0.45818517
35	0xbd8738d8	-0.06602639
36	0xbe1dd27f	-0.15412329
37	0x3ddb485c	0.10707161
38	0x3e2e193d	0.17001815
39	0xbe1b22ad	-0.15149947
40	0xbeaaf8e2	-0.33393008
41	0xbdf6fa37	-0.120594434
42	0xbe0a698b	-0.13516824
43	0x3d33c11a	0.043885328
44	0x3ee280cc	0.4423889
45	0x3e3d51e2	0.18488267
46	0xbd030e1e	-0.031995885
47	0xbd3c2c2d	-0.045940567
48	0x3d42e4de	0.047581546
49	0x3e273be3	0.16331439
50	0xbeb5f5e3	-0.3553916
51	0xbe909444	-0.28238118
52	0xbe7683c6	-0.24073705
53	0x3de11a45	0.10991339
54	0x3e301192	0.17194203
55	0x3e65e37e	0.22450063
56	0x3e0815d6	0.1328958
57	0xbad7e1eb	-0.0016470527
58	0xbe472e74	-0.19451314
59	0x3ea374d5	0.31925073
60	0x3c5eed8c	0.01360644
61	0x3edd2524	0.431924
62	0xbe3522dc	-0.17689079
63	0xbdf22611	-0.11823667
64	0x3f30574f	0.6888322
65	0x3edd9b66	0.43282622
66	0x3d07e9ca	0.033181943
67	0xbe106d48	-0.14104187
68	0xbf6b70f1	-0.9196921
69	0xbecabe6a	-0.395984
70	0x3ed08c6f	0.40732142
71	0x3df7e78e	0.121047124
72	0x3e5e4263	0.21705012
73	0x3e86fb66	0.26363677
74	0x3e4c7771	0.19967438
75	0xbce796d5	-0.028270165
76	0xbdaa3899	-0.083115764
77	0x3e9e3e6e	0.30907005
78	0xbe36ef52	-0.17864731
79	0x3e325b33	0.17417602
80	0xbe5f2f96	-0.21795496
81	0xbe93aa13	-0.28840694
82	0xbebf5984	-0.37372983
83	0x3da0c3cf	0.078498475
84	0x3f237b8e	0.63860404
85	0x3eb2f03e	0.34948915
86	0xbe1a4066	-0.15063629
87	0x3e7231e4	0.23651844
88	0x3f0e4a5c	0.55582213
89	0x3db943cc	0.09046134
90	0xbe208f48	-0.15679657
91	0xbe87aaaf	-0.2649741
92	0xbeaf515b	-0.34241757
93	0xbec54e3d	-0.38536254
94	0x3ec6509d	0.38733378
95	0x3ea47c9f	0.32126328
96	0x3db2abb5	0.08724157
97	0x3e40c1b6	0.18823895
98	0xbefd45fc	-0.49467456
99	0xbece127f	-0.40248486
100	0xbd5430ed	-0.05180447
101	0xbecdced7	-0.4019687
102	0x3d41d7cc	0.04732494
103	0xbea2e120	-0.31812382
104	0x3d831c31	0.064018615
105	0x3e37797e	0.1791744
106	0x3d482c58	0.048870414
107	0x3d096038	0.033539027
108	0x3dc17e73	0.094479464
109	0x3e2235fa	0.15840903
110	0xbdc9630a	-0.09833343
111	0xbd1d9eac	-0.0384814
112	0x3ed05f68	0.4069779
113	0x3d4d9a18	0.050195783
114	0xbe30ce30	-0.17266154
115	0xbdfc8bca	-0.1233135
116	0xbd489740	-0.04897237
117	0x3bd1ae2a	0.006398936
118	0x3e159eb0	0.14611316
119	0xbc6e34c8	-0.014538951
120	0x3ebb70ea	0.36609584
121	0x3ecf13cf	0.404448
122	0x3edd885d	0.432681
123	0xbe07b240	-0.1325159
124	0xbd8dabc5	-0.06917528
125	0x3e170dc0	0.14751339
126	0xbb732baa	-0.0037104883
127	0xbe4f4999	-0.20242919

onnx::MatMul_122 f4 [8, 1]
0	0xbeffc264	-0.49952996
1	0xbec24cff	-0.37949368
2	0x3ede80e0	0.434577
3	0xbd1cd476	-0.038288556
4	0xbe8860a9	-0.26636246
5	0xbed92b99	-0.42416075
6	0xbe6141ea	-0.219978
7	0xbdacb957	-0.08433788
