Hybrid/Models/EDCL1BTapePreamp.onnx (onnx, 6559 bytes, 11 tensors)

film_layer.bias f4 [16]
0.2837994 0.46809518 0.022072515 0.27975 0.16563524 -0.22072385 0.2029226 -0.43814716
0.0045974073 0.14788973 0.2511314 0.05583273 -0.008589825 0.16268499 -0.08894519 -0.004243759
00000000: 284e 913e 2caa ef3e 6bd1 b43c 643b 8f3e
00000010: 499c 293e 6f05 62be f1ca 4f3e d354 e0be
00000020: d9a5 963b 6870 173e 4b94 803e dcb0 643d
00000030: 56bc 0cbc e596 263e e528 b6bd 3b0f 8bbb

film_layer.weight f4 [16, 3]
0.24501978 0.58720803 -0.22963977 0.63832587 -0.038343985 0.50791585 0.19888538 -0.50742984
-0.2905567 -0.18555197 0.35590082 -0.0391341 0.045953482 -0.18020786 0.53866184 0.45920375
0.052200772 -0.4792453 0.31440052 0.6603246 -0.5866267 -0.06077364 -0.21766156 0.02114941
-0.08984876 0.48624915 0.058320463 -0.026681973 0.34817013 -0.24664046 0.4137643 -0.17359799
-0.40850908 0.4393036 0.018020384 0.43908358 0.38962573 0.12963098 0.14103949 0.4452876
0.21668261 0.6815691 -0.28165036 0.35405314 -0.4093202 -0.32905632 0.54672515 0.5431553
00000000: 77e6 7a3e 4453 163f b026 6bbe 5369 233f
00000010: 950e 1dbd c606 023f 9ca8 4b3e ece6 01bf
00000020: d9c3 94be 5601 3ebe a238 b63e 144b 20bd
00000030: b839 3c3d 6988 38be bee5 093f c11c eb3e
00000040: 7ad0 553d a45f f5be 1bf9 a03e 080b 293f
00000050: 2b2d 16bf c8ed 78bd ace2 5ebe 8741 ad3c
00000060: a002 b8bd a6f5 f83e 70e1 6e3d 2794 dabc
00000070: 5b43 b23e 518f 7cbe ead8 d33e acc3 31be
00000080: 1a28 d1be 67ec e03e 7c9f 933c 90cf e03e
00000090: 067d c73e fcbd 043e a86c 103e bcfc e33e
000000a0: 0ce2 5d3e 507b 2e3f 7a34 90be 7446 b53e
000000b0: 6b92 d1be 127a a8be 2ef6 0b3f 3a0c 0b3f

glu.bias f4 [16]
-0.16329925 -0.0858643 0.049383894 -0.07707642 0.16156115 0.06201175 -0.06106906 -0.14070313
0.19604874 -0.03411707 0.0713528 0.10228192 0.18202901 -0.02573123 -0.12662269 0.07351082
00000000: eb37 27be 9fd9 afbd c446 4a3d 3eda 9dbd
00000010: 4970 253e 0800 7e3d 8d23 7abd 7b14 10be
00000020: 00c1 483e 57be 0bbd 6b21 923d 2f79 d13d
00000030: d065 3a3e 4dca d2bc 61a9 01be d78c 963d

glu.weight f4 [16, 8]
0.10653435 -0.89905655 0.22422849 -0.39150268 -0.17768794 0.27257758 0.5279698 0.17588946
0.37678966 -0.4466752 -0.36294988 0.21989395 -0.45172718 0.025911896 -0.29978737 0.6563885
-0.2622157 -0.8434583 0.08064683 -0.12693462 -0.10644189 -0.39611444 -0.27281624 0.085092016
0.49462798 -0.19163671 0.078296006 -0.60707986 -0.039634477 -0.37952003 0.4895434 -0.084953345
0.5524978 0.11087922 0.057223916 0.32770172 0.5796939 0.6425355 -0.42107248 0.2964198
-0.09522392 0.7508331 -0.24826187 0.6000939 -0.54391366 0.46335912 0.24963367 0.37007052
-0.509909 0.49833798 -0.4205919 -0.016917322 0.111111455 0.07969993 -0.18438233 -0.42584318
-0.0075009842 0.38170218 0.69979566 -0.45857933 -0.71904594 -0.04528064 -0.07034105 -0.045629814
0.006152389 0.50090605 -0.15947007 0.26075265 0.61275244 -0.13311085 -0.14453584 0.6526212
0.32253626 0.23540416 -0.4976892 -0.4221803 0.5056832 0.306733 0.26836058 0.36542976
0.5761135 -0.010942897 -0.20471887 0.13346466 0.47785872 0.33892474 0.15472035 0.5322403
0.121439606 0.497041 -0.57731193 -0.11162974 -0.46497256 0.1148044 0.43380648 0.25566176
-0.48200864 0.69666404 0.37668768 0.08840129 -0.3290082 0.092064716 -0.50774986 -0.23318587
-0.3127633 -0.61235386 -0.31585985 -0.3537255 -0.31337765 -0.11076247 0.63273954 0.25231758
-0.21829924 -0.08170285 0.5859196 -0.5222681 0.38759974 -0.05463719 -0.0393283 -0.33188722
-0.25187925 0.16296943 -0.12969941 -0.38286194 0.056302827 -0.38023904 0.05362582 0.45519748
00000000: ae2e da3d 9228 66bf 279c 653e 0a73 c8be
00000010: d4f3 35be 4a8f 8b3e 0729 073f 5e1c 343e
00000020: 93ea c03e 9db2 e4be 91d4 b9be e12b 613e
00000030: c948 e7be 2f45 d43c bb7d 99be 1409 283f
00000040: 2341 86be e2ec 57bf 2a2a a53d 26fb 01be
00000050: 35fe d9bd 83cf cabe 92ae 8bbe b944 ae3d
00000060: e13f fd3e 6a3c 44be a859 a03d 9669 1bbf
00000070: c357 22bd 7350 c2be 6fa5 fa3e 05fc adbd
00000080: 7f70 0d3f a514 e33d a063 6a3d 85c8 a73e
00000090: d266 143f 357d 243f d096 d7be 56c4 973e
000000a0: c204 c3bd 9936 403f 5c38 7ebe c19f 193f
000000b0: ed3d 0bbf 683d ed3e f89f 7f3e e279 bd3e
000000c0: 6589 02bf 2826 ff3e d257 d7be 3296 8abc
000000d0: 678e e33d b839 a33d b9ce 3cbe 1e08 dabe
000000e0: d1ca f5bb 786e c33e cf25 333f e9ca eabe
000000f0: 6513 38bf 3178 39bd f80e 90bd 54e6 3abd
00000100: fb99 c93b 613b 003f 1f4c 23be 5f81 853e
00000110: 58dd 1c3f 364e 08be 3401 14be 2f12 273f
00000120: 7923 a53e ca0d 713e 1ed1 febe 0428 d8be
00000130: 7474 013f 1c0c 9d3e 8f66 893e 9c19 bb3e
00000140: 2d7c 133f d649 33bc d3a1 51be f6aa 083e
00000150: e6a9 f43e 8b87 ad3e 036f 1e3e e640 083f
00000160: 54b5 f83d 287c fe3e b7ca 13bf 229e e4bd
00000170: e210 eebe 921e eb3d e21b de3e 19e6 823e
00000180: d6c9 f6be 9358 323f 35dd c03e bc0b b53d
00000190: c373 a8be 6d8c bc3d e5fb 01bf 47c8 6ebe
000001a0: 8322 a0be 39c3 1cbf 62b8 a1be 821b b5be
000001b0: 0973 a0be 6fd7 e2bd 38fb 213f c52f 813e
000001c0: d689 5fbe d353 a7bd d4fe 153f 5db3 05bf
000001d0: 7973 c63e 3fcb 5fbd b616 21bd 1fed a9be
000001e0: 51f6 80be 75e1 263e eccf 04be 7b06 c4be
000001f0: cb9d 663d b1ae c2be bfa6 5b3d a50f e93e

output_layer.weight f4 [1, 8]
-0.5193436 -0.4183968 -0.31317502 -0.63652015 0.9115412 -0.9259269 -0.31177598 -0.2196186
00000000: b4f3 04bf 1b38 d6be 7a58 a0be fcf2 22bf
00000010: c45a 693f 8c09 6dbf 1aa1 9fbe b3e3 60be

onnx::LSTM_178 f4 [1, 32, 1]
0.4796241 0.07081857 -0.8252595 -0.53192276 -0.12417109 -0.8621904 0.15038738 0.9417416
0.22429724 0.38230634 -0.7948064 -0.91571337 0.033843502 -0.4473508 -0.54470193 0.4802082
-0.13912064 0.015432728 -0.4180747 -0.748531 -0.29818934 -0.6484986 -0.00042312194 -0.018281028
0.39105237 0.42292976 -0.30414525 0.27585292 0.108891495 -0.50781685 0.6713712 -0.14033519
00000000: 4a91 f53e 5409 913d 3544 53bf 172c 08bf
00000010: 6a4d febd 83b8 5cbf 26ff 193e fa15 713f
00000020: 2dae 653e a8bd c33e 6f78 4bbf 316c 6abf
00000030: 7c9f 0a3d 2a0b e5be 9671 0bbf d9dd f53e
00000040: a475 0ebe 8ed9 7c3c e30d d6be ba9f 3fbf
00000050: 46ac 98be 0104 26bf 77d6 ddb9 18c2 95bc
00000060: 0438 c83e 408a d83e edb8 9bbe 983c 8d3e
00000070: 8102 df3d 4900 02bf fcde 2b3f 07b4 0fbe

onnx::LSTM_179 f4 [1, 32, 8]
-0.14889324 -0.03715751 0.33115053 -0.1574254 -0.08970602 0.2923268 -0.05245872 -0.021970008
-0.045154087 -0.38016376 0.14329287 -0.55023885 -0.20125347 0.12217678 -0.22827847 0.14708216
0.07240078 -0.21949726 0.15182617 -0.1889748 0.09596668 0.2715164 -0.10987298 -0.050881516
0.14957301 -0.12812315 0.057835672 -0.3067843 0.01898681 0.19558266 -0.35331792 0.1951239
-0.073563136 -0.31179556 0.03051343 -0.19031464 0.21146423 0.00073489244 0.3254533 -0.22536635
0.48926848 -0.1124998 -0.029355522 -0.2892327 0.3524577 0.3298475 -0.4153412 -0.33300096
-0.61368006 -0.30678415 0.120233156 -0.42643756 -0.0640965 -0.05369728 -0.13572936 -0.24481079
0.060804717 -0.26733437 0.06486332 -0.12862375 -0.10674276 0.29410133 -0.17274554 -0.32987204
-0.20807335 -0.20975867 -0.043349307 0.27740946 -0.066253185 0.10967052 -0.19144717 0.12457001
-0.5106037 -0.7188079 0.33449978 -0.07739836 0.052302346 0.15333883 0.14136972 0.012347452
0.091748 0.17552966 0.40783358 -0.008381209 0.008830112 -0.28452104 0.04254302 0.037552573
-0.05700298 -0.3821694 0.16028452 -0.53423697 -0.0858171 0.14139043 -0.05716391 0.2568563
-0.24991089 -0.3342672 0.30361372 -0.14823015 0.09882596 0.18774232 -0.47083664 -0.2668487
0.013713908 -0.04293716 0.66583365 -0.050605133 0.073580764 -0.09070234 -0.20846671 0.10888706
0.10862323 -0.28678927 0.3026221 -0.17944445 -0.047983244 0.057627633 -0.28193623 0.049098287
0.0073495815 -0.33316135 0.23798673 -0.057015456 -0.2839891 -0.16878137 -0.19635391 -0.21031314
-0.34180793 -0.13322307 0.18361853 0.050199 -0.23824607 -0.029317042 0.11414603 0.37630808
-0.18503112 -0.18216318 0.20624536 -0.0392378 -0.38967106 -0.5173727 0.033896126 -0.10808751
-0.37980294 -0.053233493 0.5250589 -0.1727032 0.12278203 0.32193312 -0.14371766 -0.046947323
0.22156924 -0.34962413 0.2530764 -0.12674387 -0.4456152 0.20544004 -0.27272543 -0.23048998
-0.104862 -0.19338883 0.2470181 -0.30957 0.1456329 0.14654042 -0.35110384 0.17825082
-0.15644768 -0.12172443 -0.2926147 0.0052008876 -0.06629362 -0.19260933 0.008138586 -0.010903259
-0.15995666 -0.07774571 0.062134877 -0.26494408 -0.33808962 0.0003138522 0.079624586 0.11729871
-0.5388351 -0.18618716 0.034419585 -0.042976 -0.03790335 0.025681293 0.055709615 -0.026950374
-0.08813066 0.09609346 0.16463651 -0.3113221 -0.06978569 0.18078336 -0.44389427 -0.21484113
0.22497009 -0.021244897 -0.38339907 0.17700428 0.4352914 -0.44032946 -0.35585836 -0.19167864
-0.33905283 -0.11286654 0.25957486 -0.28713077 -0.4010639 0.18142165 -0.3814183 -0.038595445
0.29635626 0.12497269 -0.21436085 0.15319258 -0.107283935 -0.2805106 0.2428153 0.24613489
0.14646642 -0.21708505 0.023662394 -0.23140913 0.22563127 -0.038209297 -0.1347469 -0.11630864
-0.084971435 0.1998279 0.07039559 -0.12916811 0.100653395 0.02229835 -0.13090661 0.37204435
0.23972902 0.20642035 0.027515281 -0.049368463 0.11128948 -0.6732279 0.13850078 -0.4065824
-0.16433361 0.55042386 -0.16095473 -0.25547957 0.12099098 -0.19603829 0.2034328 -0.08048474
00000000: 7877 18be 7932 18bd 908c a93e 2034 21be
00000010: cab7 b7bd dcab 953e f4de 56bd 72fa b3bc
00000020: 7ef3 38bd d3a4 c2be 5ebb 123e 74dc 0cbf
00000030: 6415 4ebe d237 fa3d d5c1 69be b59c 163e
00000040: dc46 943d e4c3 60be 5278 1b3e 9c82 41be
00000050: 2e8a c43d 3304 8b3e 1605 e1bd 2369 50bd
00000060: ab29 193e b732 03be 19e5 6c3d d512 9dbe
00000070: 3a8a 9b3c d246 483e 16e6 b4be 8fce 473e
00000080: 45a8 96bd aba3 9fbe 4df7 f93c d7e1 42be
00000090: 148a 583e cca5 403a d1a1 a63e 70c6 66be
000000a0: 6681 fa3e 4c66 e6bd fe7a f0bc 4f16 94be
000000b0: 5675 b43e c6e1 a83e 9aa7 d4be 1a7f aabe
000000c0: 231a 1dbf d012 9dbe cd3c f63d 0656 dabe
000000d0: 0745 83bd aef1 5bbd a3fc 0abe aeaf 7abe
000000e0: 5e0e 793d 0de0 88be 0fd7 843d f2b5 03be
000000f0: f39b dabd 7394 963e 35e4 30be fde4 a8be
00000100: 2e11 55be faca 56be 0b8f 31bd 9d08 8e3e
00000110: c0af 87bd f09a e03d ba0a 44be 901e ff3d
00000120: edb6 02bf cb03 38bf 8e43 ab3e 0883 9ebd
00000130: fc3a 563d db04 1d3e 39c3 103e f84c 4a3c
00000140: 60e6 bb3d 0cbe 333e 90cf d03e 5751 09bc
00000150: 2dac 103c beac 91be 9741 2e3d bad0 193d
00000160: f57b 69bd b5ab c3be a021 243e c1c3 08bf
00000170: e0c0 afbd a7c8 103e b424 6abd ab82 833e
00000180: a4e8 7fbe 1225 abbe 4273 9b3e a5c9 17be
00000190: 4465 ca3d 863f 403e 8011 f1be 65a0 88be
000001a0: 4db0 603c e0de 2fbd 1374 2a3f 5447 4fbd
000001b0: 83b1 963d 26c2 b9bd 4c78 55be 2e00 df3d
000001c0: db75 de3d 0bd6 92be 49f1 9a3e 49c0 37be
000001d0: 148a 44bd f40a 6c3d f259 90be 491b 493d
000001e0: c2d4 f03b 2094 aabe cbb2 733e 0a89 69bd
000001f0: 0567 91be 06d5 2cbe 0011 49be 545c 57be
00000200: 7301 afbe a16b 08be 7f06 3c3e 779d 4d3d
00000210: c7f6 73be 4b2a f0bc 65c5 e93d 74ab c03e
00000220: cc78 3dbe fc88 3abe fc31 533e d1b7 20bd
00000230: f782 c7be 8a72 04bf aad6 0a3d fc5c ddbd
00000240: 8875 c2be 5d0b 5abd 436a 063f 1cd9 30be
00000250: 2575 fb3d 6bd4 a43e b92a 13be d64b 40bd
00000260: 0ce3 623e ef01 b3be 3b93 813e 25c9 01be
00000270: ad27 e4be e05e 523e aba2 8bbe 9105 6cbe
00000280: e3c1 d6bd b907 46be 50f2 7c3e f67f 9ebe
00000290: ca20 153e b10e 163e e2c3 b3be 6287 363e
000002a0: d233 20be a84a f9bd 98d1 95be 356c aa3b
000002b0: f3c4 87bd 613b 45be b457 053c 95a3 32bc
000002c0: aecb 23be 2539 9fbd 2481 7e3d c0a6 87be
000002d0: 151a adbe 878c a439 3712 a33d 4e3a f03d
000002e0: 19f1 09bf d9a7 3ebe 8dfb 0c3d 9a07 30bd
000002f0: 8b40 1bbd 9361 d23c c42f 643d 08c7 dcbc
00000300: d97d b4bd a6cc c43d 7996 283e 9c65 9fbe
00000310: cdeb 8ebd 461f 393e 1c46 e3be 50ff 5bbe
00000320: 8f5e 663e c709 aebc e24c c4be 9c40 353e
00000330: 84de de3e dd72 e1be 1133 b6be 6847 44be
00000340: 5598 adbe 9326 e7bd ffe6 843e ce02 93be
00000350: 3f58 cdbe 99c6 393e 4249 c3be 4216 1ebd
00000360: 02bc 973e aff1 ff3d 6981 5bbe 84de 1c3e
00000370: aeb7 dbbd 169f 8fbe 93a4 783e c90a 7c3e
00000380: 4bfb 153e 8b4b 5ebe a3d7 c13c 84f6 6cbe
00000390: e20b 673e 5a81 1cbd 17fb 09be 3933 eebd
000003a0: 8105 aebd af9f 4c3e 902b 903d a544 04be
000003b0: 5e23 ce3d 08ab b63c 620c 06be 997c be3e
000003c0: 867b 753e db5f 533e ba67 e13c 9636 4abd
000003d0: bdeb e33d aa58 2cbf 26d3 0d3e 912b d0be
000003e0: 1247 28be 94e8 0c3f 51d1 24be 38ce 82be
000003f0: 1eca f73d 43be 48be b050 503e 2fd5 a4bd

onnx::LSTM_180 f4 [1, 64]
0.2389879 0.28190434 0.030944401 0.07167511 0.18147977 0.30376735 0.36959445 0.27830416
0.112511426 0.2703443 0.06622677 0.090640314 0.28374037 0.32109997 0.36490384 0.2294971
1.0066495 1.0408628 1.0735422 1.0995284 1.0407711 1.0700514 1.1467116 1.2322637
-0.1509671 -0.0424067 0.003116685 0.04124357 -0.2002808 0.043151792 0.05583343 -0.015747743
0.0 0.0 0.0 0.0 0.0 0.0 0.0 0.0
0.0 0.0 0.0 0.0 0.0 0.0 0.0 0.0
0.0 0.0 0.0 0.0 0.0 0.0 0.0 0.0
0.0 0.0 0.0 0.0 0.0 0.0 0.0 0.0
00000000: 3eb9 743e c455 903e 1d7f fd3c 66ca 923d
00000010: d5d5 393e 6587 9b3e 7c3b bd3e e27d 8e3e
00000020: 646c e63d 916a 8a3e e7a1 873d a1a1 b93d
00000030: 6b46 913e 3767 a43e add4 ba3e 4a01 6b3e
00000040: e4d9 803f fe3a 853f d569 893f 59bd 8c3f
00000050: fd37 853f 72f7 883f 72c7 923f d1ba 9d3f
00000060: 1f97 1abe a6b2 2dbd 4c41 4c3b 05ef 283d
00000070: 6916 4dbe efbf 303d 98b1 643d 6901 81bc
00000080: 0000 0000 0000 0000 0000 0000 0000 0000
00000090: 0000 0000 0000 0000 0000 0000 0000 0000
000000a0: 0000 0000 0000 0000 0000 0000 0000 0000
000000b0: 0000 0000 0000 0000 0000 0000 0000 0000
000000c0: 0000 0000 0000 0000 0000 0000 0000 0000
000000d0: 0000 0000 0000 0000 0000 0000 0000 0000
000000e0: 0000 0000 0000 0000 0000 0000 0000 0000
000000f0: 0000 0000 0000 0000 0000 0000 0000 0000

onnx::LSTM_198 f4 [1, 32, 1]
-0.41502735 0.573084 0.2916606 -0.032542888 -1.1283236 0.7879599 0.049382534 0.44588712
-0.6678986 -0.37295008 0.3348322 0.25411463 -0.069313124 -0.20319761 -0.24870484 0.0746162
-0.98127866 -0.9725596 0.056055374 0.035845842 -0.14972691 0.11730712 0.024999771 -0.64001876
-1.0122842 1.5427902 0.11446529 0.31325328 -1.0937033 -0.17323071 0.94232875 1.470125
00000000: 777e d4be a2b5 123f 8a54 953e b14b 05bd
00000010: e86c 90bf bdb7 493f 5745 4a3d 514b e43e
00000020: 67fb 2abf 50f3 bebe 206f ab3e 501b 823e
00000030: 0af4 8dbd 0913 50be 7bac 7ebe 61d0 983d
00000040: 1435 7bbf aaf9 78bf 529a 653d 17d3 123d
00000050: 0352 19be b73e f03d 52cc cc3c 45d8 23bf
00000060: 8792 81bf 267a c53f c76c ea3d bc62 a03e
00000070: 78fe 8bbf 6463 31be 753c 713f 0e2d bc3f

onnx::LSTM_199 f4 [1, 32, 8]
0.24440557 -0.38461703 0.6591741 -0.5091077 0.10107273 0.55107605 -0.33754033 -0.60636896
1.1166962 -0.23156175 0.9204766 -1.2477111 0.38582793 1.0147592 -0.7802626 -0.86994904
0.032845482 -0.288795 0.36340946 -0.20495002 0.43042305 -0.042341035 0.16600135 -0.75097746
0.26691276 -0.19971788 -0.023632642 0.20225966 -0.18118002 -0.21960706 -0.0767159 -0.046739582
0.40741614 -0.44730523 0.59587514 -0.71691895 0.061971754 0.83253413 -0.8198056 -0.6683481
0.051333006 0.0830786 0.20030068 -0.15120581 0.668181 -0.04754826 0.18892664 -0.34572595
0.08942695 -0.38934767 0.5384511 -0.488194 0.10123972 0.20088725 0.064366154 -0.3435274
0.5725517 -0.61449605 1.0467334 -1.2612598 0.22019044 0.7179698 -0.8041145 -0.71591705
0.19253194 -0.15921083 -0.027262708 -0.09796567 0.29792663 0.5550552 -0.47637996 0.052748404
0.07475579 -0.43602332 0.18568015 -0.6151369 0.21076192 0.22213069 -0.061662808 -0.36208934
0.027092021 -0.33343747 0.3115747 -0.016896002 0.46087626 0.4982651 0.07750822 -0.40716487
0.2642289 -0.011614451 0.19145675 0.07877447 0.3242177 0.29421028 -0.12707053 -0.48149422
0.48769498 -0.15642713 0.10244202 -0.0026487284 0.13779394 -0.050365265 -0.12768838 0.06936462
0.47534546 -0.40754366 0.5683541 -0.7198352 0.64542735 0.36406398 -0.34591317 -0.49310425
-0.30491537 -0.5113637 0.34501278 -0.24382891 -0.3298889 -0.12018922 -0.06256504 -0.6255088
0.2874813 -0.23987372 0.48849678 -0.374515 0.65803605 0.63010514 -0.61675835 -0.3941884
0.29643 -0.47106078 -0.016190553 0.037237026 0.114671186 0.36774105 -0.039826505 -0.22018997
-0.090231046 -0.29657605 0.22102246 0.0784018 -0.41743428 0.25460127 -0.014681117 -0.17265739
0.13541986 0.48798713 -0.7322012 0.0060042115 0.2168677 -0.09824979 0.23060913 -0.2672681
0.35354283 0.11676851 0.33159173 -0.15998508 0.46530813 0.028865065 -0.45503432 -0.19169697
-0.061350886 0.27260384 0.15143916 0.1616989 0.20644276 -0.27858055 -0.13908292 0.14811182
0.013269142 -0.44654486 0.15793788 -0.5468298 0.43547827 0.40869394 -0.4836248 -0.2682112
-0.23618661 -0.13343573 -0.26333424 0.27594447 -0.43742138 0.09563054 -0.026681814 -0.111926384
0.007886005 -0.39557567 0.28250933 -0.004982638 0.08004749 0.5574834 -0.17805338 -0.22877826
0.27680317 -0.6205756 0.28827083 -0.25700858 0.03020851 0.40581933 -0.15417118 -0.07539562
0.06512231 0.30096474 0.041604802 0.052327972 -0.18416083 0.05220582 0.35269067 0.08884568
-0.21310396 -0.23241901 0.09369607 -0.3920906 0.10701057 -0.12169155 0.54586613 -0.11585279
0.07167858 -0.15364857 -0.05302004 -0.1503734 -0.113666475 0.33462122 -0.15064399 -0.13097163
0.06288442 -0.33017212 0.3233736 -0.18272567 0.04267253 0.4232645 -0.25519046 -0.4703298
-0.22193876 0.24285102 0.14116544 0.29702953 0.029782562 0.24435599 -0.29072848 -0.187881
0.34002087 0.3072245 0.07274032 -0.022864241 0.42975432 0.2551974 0.04968647 0.050892357
0.1207603 0.24776424 -0.4091099 0.37830737 0.008117685 -0.49427116 0.016587678 0.08009636
00000000: 7445 7a3e 86ec c4be a2bf 283f e254 02bf
00000010: 38ff ce3d 5213 0d3f 16d2 acbe ff3a 1bbf
00000020: e7ef 8e3f 861e 6dbe 5ba4 6b3f ffb4 9fbf
00000030: 3d8b c53e a1e3 813f 4abf 47bf fbb4 5ebf
00000040: fc88 063d f0dc 93be ce10 ba3e 6bde 51be
00000050: 6960 dc3e cb6d 2dbd 42fc 293e 0f40 40bf
00000060: caa8 883e d882 4cbe 3e99 c1bc 281d 4f3e
00000070: 4187 39be ace0 60be 3a1d 9dbd 0172 3fbd
00000080: d998 d03e 3105 e5be 468b 183f 0088 37bf
00000090: 18d6 7d3d f520 553f c8de 51bf dc18 2bbf
000000a0: 8f42 523d 1d25 aa3d 9f1b 4d3e b2d5 1abe
000000b0: e90d 2b3f f7c1 42bd fc75 413e fe02 b1be
000000c0: 7a25 b73d 9458 c7be eed7 093f 90f4 f9be
000000d0: c556 cf3d 63b5 4d3e 67d2 833d d3e2 afbe
000000e0: c092 123f 9d4f 1dbf 5cfb 853f f670 a1bf
000000f0: 9a79 613e decc 373f 73da 4dbf 5746 37bf
00000100: 1827 453e 2a08 23be 0b56 dfbc 3aa2 c8bd
00000110: d789 983e 1918 0e3f 13e8 f3be b60e 583d
00000120: 9019 993d 733e dfbe f022 3e3e 9d79 1dbf
00000130: f9d1 573e 3a76 633e 2492 7cbd c663 b9be
00000140: 16f0 dd3c 51b8 aabe b886 9f3e 7c69 8abc
00000150: f9f7 eb3e 9a1c ff3e a1bc 9e3d ea77 d0be
00000160: 0349 873e 8a4a 3ebc 3d0d 443e 8254 a13d
00000170: ddff a53e bba2 963e c71e 02be 6986 f6be
00000180: 28b3 f93e 6f2e 20be 1fcd d13d 4a96 2dbb
00000190: db19 0d3e cf4b 4ebd bec0 02be 0a0f 8e3d
000001a0: 7b60 f33e 90a9 d0be a87f 113f 1f47 38bf
000001b0: ba3a 253f 9866 ba3e 881b b1be 2978 fcbe
000001c0: de1d 9cbe bbe8 02bf 84a5 b03e 49ae 79be
000001d0: 33e7 a8be c425 f6bd 1a22 80bd 5821 20bf
000001e0: c030 933e 75a1 75be 401c fa3e 6ec0 bfbe
000001f0: 0d75 283f 924e 213f e0e3 1dbf 10d3 c9be
00000200: acc5 973e e12e f1be 0da2 84bc da85 183d
00000210: bad8 ea3d 8e48 bc3e 1e21 23bd 7b79 61be
00000220: 0ecb b8bd d1d8 97be b653 623e 1f91 a03d
00000230: f2b9 d5be 195b 823e 1189 70bc 19cd 30be
00000240: 81ab 0a3e 73d9 f93e 8a71 3bbf fabe c43b
00000250: 9112 5e3e 3037 c9bd cd24 6c3e 5dd7 88be
00000260: 9103 b53e 5424 ef3d 64c6 a93e 21d3 23be
00000270: de3c ee3e 6e76 ec3c 42fa e8be 364c 44be
00000280: 114b 7bbd bb92 8b3e de12 1b3e 6594 253e
00000290: bb65 533e 1ca2 8ebe c16b 0ebe a0aa 173e
000002a0: d166 593c 87a1 e4be 78ba 213e 0afd 0bbf
000002b0: 02f7 de3e 5540 d13e ab9d f7be fa52 89be
000002c0: e7da 71be 60a3 08be bfd3 86be 9848 8d3e
000002d0: b2f5 dfbe f2d9 c33d d293 dabc a939 e5bd
000002e0: 4d34 013c e588 cabe 10a5 903e 6645 a3bb
000002f0: f0ef a33d 3bb7 0e3f a053 36be d944 6abe
00000300: 25b9 8d3e 0bde 1ebf 3c98 933e a196 83be
00000310: d677 f73c 8dc7 cf3e 0ddf 1dbe 0569 9abd
00000320: d85e 853d 0d18 9a3e cc69 2a3d db55 563d
00000330: a894 3cbe c5d5 553d df93 b43e b9f4 b53d
00000340: ed37 5abe 40ff 6dbe bae3 bf3d 19c0 c8be
00000350: 5c28 db3d 6b39 f9bd e2bd 0b3f 3a44 edbd
00000360: 38cc 923d 0d56 1dbe 8b2b 59bd 7cfb 19be
00000370: f8c9 e8bd 7953 ab3e 6b42 1abe 6d1d 06be
00000380: 8cc9 803d 520c a9be 3991 a53e 701c 3bbe
00000390: 64c9 2e3d 20b6 d83e 53a8 82be 11cf f0be
000003a0: ea43 63be f0ad 783e ac8d 103e 4114 983e
000003b0: 8ffa f33c 7538 7a3e 5dda 94be e063 40be
000003c0: 3717 ae3e 884c 9d3e e0f8 943d ca4d bbbc
000003d0: c208 dc3e 3ca9 823e 0a84 4b3d 8174 503d
000003e0: 2d51 f73d e9b5 7d3e da76 d1be 81b1 c13e
000003f0: 0a00 053c 1c11 fdbe e2e2 873c 8f09 a43d

onnx::LSTM_200 f4 [1, 64]
0.6586526 0.6832189 0.15752968 0.073000565 0.6143174 0.12750903 0.650117 0.8815925
0.2935061 0.5519329 0.23746906 0.093319766 0.18375129 0.20340835 0.5989971 0.4352026
0.95118386 1.0905874 0.91757363 0.995767 0.9723701 1.1722056 1.1367905 1.1684109
-0.11903546 0.2308459 -0.036503274 0.17764525 0.04116466 -0.32033816 0.10173311 0.11203318
0.0 0.0 0.0 0.0 0.0 0.0 0.0 0.0
0.0 0.0 0.0 0.0 0.0 0.0 0.0 0.0
0.0 0.0 0.0 0.0 0.0 0.0 0.0 0.0
0.0 0.0 0.0 0.0 0.0 0.0 0.0 0.0
00000000: 759d 283f 6fe7 2e3f 764f 213e 5281 953d
00000010: e843 1d3f ba91 023e 116e 263f 0cb0 613f
00000020: 6e46 963e 794b 0d3f 172b 733e 6f1e bf3d
00000030: 4c29 3c3e 474a 503e e057 193f e0d2 de3e
00000040: c980 733f 5e98 8b3f 1be6 6a3f 96ea 7e3f
00000050: 3fed 783f d50a 963f 5a82 913f 7d8e 953f
00000060: ddc8 f3bd de62 6c3e 7584 15bd a3e8 353e
00000070: 469c 283d 5d03 a4be 7359 d03d a771 e53d
00000080: 0000 0000 0000 0000 0000 0000 0000 0000
00000090: 0000 0000 0000 0000 0000 0000 0000 0000
000000a0: 0000 0000 0000 0000 0000 0000 0000 0000
000000b0: 0000 0000 0000 0000 0000 0000 0000 0000
000000c0: 0000 0000 0000 0000 0000 0000 0000 0000
000000d0: 0000 0000 0000 0000 0000 0000 0000 0000
000000e0: 0000 0000 0000 0000 0000 0000 0000 0000
000000f0: 0000 0000 0000 0000 0000 0000 0000 0000
