NeuralCL1B/Models/CL1B_nof.onnx (onnx, 29294 bytes, 36 tensors)

initial_dense.bias f4 [2]
00000000: a658 b3bc b4b1 1a3e
-0.021892857 0.15106851

mamba1.conv1d.bias f4 [4]
00000000: 26bf 40bd 8931 ba3e 6cb9 8c3e 4e21 803e
-0.047057293 0.36365917 0.27485216 0.2502541

mamba1.conv1d.weight f4 [4, 1, 4]
00000000: 79f8 073f 7b58 f1be ba3b c5be 9385 0b3e
00000010: 067c 543f ef68 2b3f 728f 06bd d218 623f
00000020: d782 8e3c 4af4 09be 9f5b b0be 92b0 14bf
00000030: d9e7 033c 1115 363f 8917 653e 3a9c 433f
0.53113514 -0.47137818 -0.3852213 0.13625173 0.83001745 0.6695699 -0.032851644 0.8831912
0.017396374 -0.13472095 -0.344449 -0.58081925 0.008050882 0.71125895 0.22372259 0.7641026

mamba1.delta_t_projection.bias f4 [4]
00000000: 7d4d ab36 12fe bdbc 4cb1 11ba b2a6 febb
5.105218e-06 -0.02319244 -0.00055577303 -0.0077713365

mamba1.out_projection.bias f4 [2]
00000000: 2940 bd3e 9a34 9fbd
0.36963013 -0.07773705

dense1.bias f4 [2]
00000000: a26e 063f 0fbd 10be
0.5251256 -0.1413462

film.dense.bias f4 [4]
00000000: 97b3 73be bc69 06bc 9449 7fbe d1f7 68be
-0.23798977 -0.00820392 -0.24930412 -0.22750784

film.glu.dense.bias f4 [4]
00000000: f130 013d 9d06 783e 3fff cc3d 1d8d a13e
0.031540815 0.24221273 0.10009622 0.31552973

temporal_film.glu.dense.bias f4 [4]
00000000: 44fc 8c3d f57d df3d 51b9 a43e d4c7 29be
0.06884053 0.10912696 0.32172635 -0.16580135

mamba2.conv1d.bias f4 [4]
00000000: 72e5 41be 61de ff3d 0e5e 7fbe d0c7 17bd
-0.18935183 0.12493587 -0.24938223 -0.03705579

mamba2.conv1d.weight f4 [4, 1, 4]
00000000: fd9e 05bf a5e8 15bf 5c4b ac3d e400 d4be
00000010: 3439 0bbf 4554 05bf 75e7 523e 97da 23bf
00000020: cc49 3ebe 5004 e93e b87d b23e a607 263f
00000030: c9f2 023f ad2d f4bd d3b2 123f d02c 503f
-0.5219572 -0.5855811 0.08412811 -0.4140693 -0.5438416 -0.5208171 0.20596106 -0.64005417
-0.18582839 0.45511103 0.3486154 0.6485542 0.5115171 -0.119227745 0.57304114 0.8131838

mamba2.delta_t_projection.bias f4 [4]
00000000: 8c88 5d3d 920d bd3e f94d 833d 5000 a6be
0.0540853 0.36924416 0.064113565 -0.32422113

mamba2.out_projection.bias f4 [2]
00000000: ff1e 89bd 071e 91bd
-0.06695365 -0.070858054

dense2.bias f4 [2]
00000000: 6533 3c3d 4d3f 00be
0.04594745 -0.12524147

onnx::MatMul_411 f4 [1, 2]
00000000: f263 4b3f 020f 6b3f
0.7944938 0.91819775

onnx::MatMul_412 f4 [2, 8]
00000000: 0a79 2f3f a914 61bf 23eb 843d 4690 4ebf
00000010: 52cf 053f dce4 993f 581a 583f 7aaf 363f
00000020: b73e acbe ad8e cfbe 8679 5ebf f1a4 9fbe
00000030: deeb 27bf 4e17 5e3f e5c3 0b3f 2ab0 7f3f
0.68544066 -0.8792215 0.06490161 -0.80688894 0.5226947 1.2022967 0.844152 0.71361506
-0.33641598 -0.4053854 -0.8690418 -0.31180528 -0.6559428 0.8675431 0.54595786 0.9987818

onnx::Exp_421 f4 [4, 6]
00000000: efae 8936 84d0 b4b6 fd00 64b6 6a39 0ab6
00000010: 5413 7537 c43e db36 9934 80bd f219 5b3d
00000020: 2451 773d c9c9 19bd ae08 913c 4fd7 07bd
00000030: d4cd b33a f936 183b 2e04 83ba 078d 8db8
00000040: cea4 a7bb 9be6 21bb 15e4 debc 10cc cd3c
00000050: 7985 ee3c 65e1 73bc 378d 443b cc6f 80bc
4.103283e-06 -5.3886924e-06 -3.3975223e-06 -2.0597022e-06 1.4607638e-05 6.5340155e-06 -0.06260032 0.05349154
0.060380116 -0.037545953 0.017704334 -0.03316432 0.0013717958 0.0023226126 -0.0009995752 -6.749672e-05
-0.005116082 -0.0024704102 -0.027208367 0.025121719 0.02911638 -0.014885281 0.0029991397 -0.015678309

onnx::Mul_422 f4 [4]
00000000: 4858 803f c84a af3f e66c 973f b815 aa3f
1.0026941 1.3694696 1.1830108 1.3287878

onnx::MatMul_423 f4 [4, 13]
00000000: cdae e13c 7074 db3e c92d e93e a5d7 a3be
00000010: e422 a83e 3cf0 873e 5a81 83be d3d6 21be
00000020: 3ee2 12bf f869 e5be 98ee e0be fbae 37be
00000030: 9135 37bc f922 023f bd88 333d db70 e53e
00000040: b2de ff3e 1d95 ccbe de3f ad3e fbd0 96be
00000050: 53a7 00bf e94b 9cbd db96 d6be 6087 1fbe
00000060: 5631 e6be f10b 78be 5a20 b0be a5e5 f7be
00000070: 79a9 9c3e 5b19 073e bc30 99bc 96a1 a53e
00000080: 7ed0 df3e aa73 e0be 7f51 913e 293f 25be
00000090: 737d d33e 0d45 d63e f797 b2bc 5bba 823d
000000a0: 577f 21bf 07ac 863e 0257 133e 109a 693e
000000b0: 42c6 6ebe f76b c9be 5558 1fbe c6e7 12be
000000c0: a7a4 9e3e 7214 e2be 68c6 203f 2caa a43b
0.027549172 0.42862272 0.45542744 -0.3200046 0.3283912 0.26550472 -0.25684625 -0.15804605
-0.5737647 -0.4480741 -0.43932033 -0.17937844 -0.011182205 0.50834614 0.043831576 0.44812664
0.4997459 -0.39957514 0.3383779 -0.29456314 -0.50255316 -0.07631666 -0.4191197 -0.15578985
-0.44959515 -0.24223305 -0.34399682 -0.48417392 0.30598047 0.13193266 -0.018699996 0.32349843
0.43713754 -0.43838245 0.2838249 -0.16137375 0.41306648 0.41849557 -0.021800978 0.06383201
-0.6308493 0.2630312 0.1438866 0.22812676 -0.23317817 -0.39340183 -0.1556104 -0.14346227
0.30984995 -0.44156224 0.62802744 0.005025169

onnx::MatMul_424 f4 [1, 4]
00000000: ac03 b83e a240 833f fd84 b23d 9040 2bbf
0.359403 1.0254099 0.08716772 -0.6689539

onnx::MatMul_434 f4 [4, 2]
00000000: 4874 3e3e 677f 2b3f 4640 8ebf 21cc 783f
00000010: 2909 873f b2ef 2abe b98e 8abf 6843 af3e
0.18599045 0.66991276 -1.1113365 0.97186476 1.054967 -0.16692999 -1.0824805 0.34231114

onnx::MatMul_435 f4 [2, 2]
00000000: db24 d43e 2374 e3be a2a4 79be b221 dcbe
0.41434368 -0.44424543 -0.24379209 -0.42994457

onnx::MatMul_436 f4 [2, 4]
00000000: d22f 25bf d0cf 773f bb2d 8bbf fe45 9fbf
00000010: 02d8 5dbf dc5e 24bf c226 4f3e c97c 09bd
-0.64526093 0.9680147 -1.0873331 -1.2443235 -0.86657727 -0.64207244 0.20229629 -0.03356627

onnx::MatMul_437 f4 [2, 4]
00000000: 3862 8a3d a984 64bf 9979 303f d685 12bf
00000010: cbfb db3e 1c53 9fbf d356 18bf a41f acbe
0.06757015 -0.89264923 0.68935543 -0.5723547 0.4296554 -1.2447238 -0.59507483 -0.3361789

onnx::GRU_455 f4 [1, 12, 2]
00000000: d0a0 183f 2a38 263e b591 0cbf 37dc 2d3e
00000010: c23a 133d 01b3 dd3c f98a f83e cfe7 17bf
00000020: 15cf 4abe c4f9 623e f7ec 82bf f191 45be
00000030: ff47 d63e 7987 a83e fead a5be bb1e 27bf
00000040: 93ff 0b3f dbc2 e63e 8e5e 883e 630a 1dbf
00000050: 7710 823f 7da8 163f 4486 903d cbfa 41bd
0.5962038 0.16232362 -0.5490983 0.16978537 0.035944708 0.027062895 0.48543528 -0.59338087
-0.19805558 0.2216559 -1.0228566 -0.19293953 0.41851804 0.32915857 -0.32359308 -0.65281266
0.5468685 0.45070538 0.2663464 -0.61343974 1.0161275 0.5885084 0.07056859 -0.047358315

onnx::GRU_456 f4 [1, 12, 4]
00000000: f040 f9ba 1372 e5be 363d 123e 3f4f 8a3e
00000010: 5ba1 063f c415 4cbe ed44 ac3e 640d 8d3e
00000020: df06 adbe 8568 a33e cc9e e63c cf87 283d
00000030: 6924 34be 049a 49be 907f 143c 602f 973c
00000040: 8171 42be 10d6 d4be ac3a 4e3f ee0b 1fbe
00000050: a67c cdbd ba31 0b3e 6e62 743e af25 613d
00000060: eb2c 483f f0c3 45bf bc5a 1f3f a455 ff3e
00000070: 0492 113f 95be 5b3d 2290 093c 1901 2239
00000080: ce62 873e bb58 843e fa20 123f 67d4 2a3f
00000090: 6f21 a53d 6483 043f 71fe 0cbf 5d88 41bf
000000a0: a623 043f 63d6 22bf 0071 283f 0aab d23e
000000b0: f26f 103f a0f3 a13d 8b69 1c3f 274e 78be
-0.0019016545 -0.44813594 0.14281163 0.27013585 0.5258996 -0.19930178 0.33646336 0.2754928
-0.33794305 0.3191568 0.028151892 0.041145142 -0.17592014 -0.19687659 0.009063616 0.018455207
-0.18988611 -0.41569567 0.80558276 -0.15531895 -0.100335404 0.13593188 0.23865673 0.05496758
0.7819354 -0.772521 0.62247825 0.49870026 0.5686343 0.05364855 0.00839618 0.00015449933
0.2644257 0.25848946 0.5708157 0.6673035 0.080630176 0.51762986 -0.55075747 -0.755987
0.51616895 -0.6360838 0.65797424 0.41146117 0.56420815 0.07907796 0.61098546 -0.24248563

onnx::GRU_457 f4 [1, 24]
00000000: 8485 25bb 7313 16bc 6ee8 76b9 9dd5 36bb
00000010: d1bc 713e 39ee 393e abeb 293f 3ae1 0f3e
00000020: ad55 903e 754d 14be 3b29 323f 7702 433e
00000030: 8485 25bb 7313 16bc 6ee8 76b9 9dd5 36bb
00000040: d1bc 713e 39ee 393e abeb 293f 3ae1 0f3e
00000050: 3d35 903e 55b7 a3be fed5 323f 4f0e 613e
-0.0025256583 -0.0091599105 -0.00023546975 -0.002789832 0.23607184 0.18157281 0.66375226 0.14050761
0.28190365 -0.14482673 0.6959416 0.19043909 -0.0025256583 -0.0091599105 -0.00023546975 -0.002789832
0.23607184 0.18157281 0.66375226 0.14050761 0.28165618 -0.3197581 0.69857776 0.21978115

onnx::MatMul_458 f4 [2, 4]
00000000: cc70 d83e 2105 873f 4375 933f b672 78bf
00000010: 0064 a23f 3b10 b03e 0df7 383f 0f49 d3be
0.42273557 1.054844 1.152016 -0.97050035 1.2686768 0.34387383 0.7225197 -0.41266677

onnx::MatMul_459 f4 [2, 8]
00000000: 7971 383f 481f 3bbf a823 14bf bbd0 82bf
00000010: e0fb 71bf f34e df3c 575a 57be 4e47 c9bd
00000020: f4de 3dbe 8519 5a3f 2252 553f 4358 94be
00000030: e8f6 0c3e 423c 3bbf ba10 823e 2c20 733f
0.72048146 -0.73094606 -0.5786691 -1.021995 -0.94524956 0.027259326 -0.21030556 -0.098280534
-0.18542081 0.8519519 0.8332845 -0.28973588 0.13766062 -0.7313882 0.25403386 0.94970965

onnx::Exp_468 f4 [4, 6]
00000000: 1a26 9bbd edf3 41bc c339 5e3c 79a7 933c
00000010: 4e2a 50bc ab34 d33c 0e71 45be db18 d4bd
00000020: dc0b c33d 3a48 7c3d 6c6b 743d 1d30 a93d
00000030: 6a22 c8bd b0ab d5bc e705 e13c 2333 483d
00000040: b823 79bb 1d35 093c 2cce 883d dfaf 91bd
00000050: b485 08be 7364 2ebd 97b1 bbbe c970 0cbd
-0.07575627 -0.011837942 0.013563576 0.018024193 -0.012705399 0.02578195 -0.19281408 -0.10356303
0.09523746 0.061592318 0.059672758 0.0826113 -0.09772189 -0.026082844 0.027468635 0.048876893
-0.0038015675 0.00837448 0.06679949 -0.07113623 -0.13332254 -0.042576265 -0.36658928 -0.034287248

onnx::Mul_469 f4 [4]
00000000: 2085 9e3f dad5 8f3f d935 913f 7651 b63f
1.2384377 1.1237137 1.1344558 1.424361

onnx::MatMul_470 f4 [4, 13]
00000000: 18ae b0be 74ff 243d 1fbd 9bbe 1637 383e
00000010: 64de 1dbf 65d7 62bb bd58 cebe 3407 d03c
00000020: 890d 7a3e 35d2 1f3e ab40 11bf 1e69 4a3e
00000030: 7b15 a2bc e4d9 91bf d864 503f bf2c 0c3e
00000040: 9db4 f8be 05b1 a43e df63 30bf 433b 783e
00000050: 8af3 bcbd 9930 1dbf 647a 96bc 1158 d23d
00000060: 2b97 133e 8f24 04bf 7e7b a7be 1dc7 62bf
00000070: da9f a53e 685c f03e bbc7 aabe 8626 35be
00000080: 6481 a1be 1caa a53c de79 f63e eda0 b73e
00000090: 9c2d 1dbf 44c1 a03e ba93 ebbe ba1f af3d
000000a0: 503b 33be aa6b 113f eba5 023f 7331 a63e
000000b0: 82f3 e13d 1429 68be 58db 46bf a57e 803d
000000c0: 8231 24be 9a8b 893e 884a 473e e27a fbbe
-0.34507823 0.04028268 -0.30417725 0.17989764 -0.61667466 -0.0034613248 -0.40302077 0.02539406
0.24419226 0.15607531 -0.567393 0.19766662 -0.019785633 -1.139462 0.81403875 0.13688944
-0.48575297 0.32166305 -0.6890239 0.24241357 -0.09226139 -0.6140228 -0.018368907 0.102707036
0.14413135 -0.51618284 -0.32711405 -0.8858507 0.3234852 0.469455 -0.33355507 -0.17690477
-0.3154403 0.020222716 0.48139852 0.35864964 -0.6139772 0.3139745 -0.46011144 0.08550973
-0.17503095 0.5680491 0.5103442 0.32459602 0.110327736 -0.2267192 -0.7767844 0.062741555
-0.1603451 0.2686432 0.19462025 -0.4911719

onnx::MatMul_471 f4 [1, 4]
00000000: 079e 65be bdef 52bf e62b 32bf b80c 853f
-0.22423564 -0.8239706 -0.69598234 1.0394506

onnx::MatMul_481 f4 [4, 2]
00000000: 07de 85bf eb3e 9dbd 0b2b 26bf 8a11 7cbd
00000010: 94e4 523f a47f fcbe 76bd 9cbf 1744 95bf
-1.0458382 -0.07678016 -0.6490943 -0.061540164 0.8238003 -0.49316132 -1.2245319 -1.1661404

onnx::MatMul_482 f4 [2, 2]
00000000: 4ba7 67be 363b 783e e81c 74bf 3c14 643f
-0.22622411 0.24241337 -0.9535661 0.89093375

onnx::MatMul_483 f4 [2, 1]
00000000: b0a1 613f 565a a2bf
0.8813734 -1.2683818
