NeuralPiano/Models/NeuralPiano_up.onnx (onnx, 14106 bytes, 16 tensors)

s6.conv1d.bias f4 [2]
-0.5191064 -0.479233
00000000: 28e4 04bf 075e f5be

s6.conv1d.weight f4 [2, 1, 1]
1.1716456 -0.910079
00000000: 7cf8 953f f0fa 68bf

s6.delta_t_projection.bias f4 [2]
-0.005278066 -0.014643674
00000000: a0f3 acbb 05ec 6fbc

dense.bias f4 [8]
-0.08709827 0.17635937 0.20478112 0.089937724 0.16301101 0.18861847 0.18004929 0.2690921
00000000: 9460 b2bd 8d97 343e 24b2 513e 4531 b83d
00000010: 5cec 263e 3325 413e d75e 383e 71c6 893e

film.bias f4 [16]
-0.3220866 0.3982052 -0.70085865 -0.35537553 0.5835307 0.33136293 -0.4383244 -0.45933586
0.14971727 0.08457931 -0.06467226 0.0840857 -0.15391319 0.012670272 -0.10747215 -0.16090964
00000000: 89e8 a4be 8de1 cb3e 796b 33bf c8f3 b5be
00000010: 4562 153f 67a8 a93e 0e6c e0be 122e ebbe
00000020: 7c4f 193e eb37 ad3d e472 84bd 2035 ac3d
00000030: 6b9b 1dbe f996 4f3c 5c1a dcbd 7fc5 24be

glu.bias f4 [16]
-0.24329653 0.10874161 -0.027929308 0.040681526 -0.0697668 -0.15761717 0.0040305117 0.06797133
0.06032995 -0.21096948 0.09766109 -0.0066064983 -0.18659197 0.016232545 -0.21482901 0.05854241
00000000: ba22 79be ecb3 de3d 01cc e4bc aca1 263d
00000010: e5e1 8ebd 6566 21be 6212 843b 8d34 8b3d
00000020: 8a1c 773d 6208 58be 8a02 c83d 537b d8bb
00000030: f711 3fbe 1dfa 843c 23fc 5bbe 2bca 6f3d

onnx::MatMul_176 f4 [1, 4]
0.12686339 0.30752012 -1.1100645 -0.8032289
00000000: 7ae8 013e 4773 9d3e 9816 8ebf 69a0 4dbf

onnx::Exp_185 f4 [2, 64]
-0.013409275 0.69384664 1.0975868 1.3671366 1.6094692 1.7919744 1.9461753 2.0792568
2.196781 2.2994957 2.398397 2.4848921 2.562236 2.639249 2.708056 2.7725883
2.83363 2.8905113 2.9441903 2.993462 3.0442524 3.0904934 3.1354902 3.1780539
3.218876 3.2580965 3.295837 3.3322046 3.3672957 3.4011974 3.4339733 3.4657416
3.496509 3.5264256 3.5553138 3.5839145 3.611238 3.6380622 3.6614163 3.6891856
3.7158034 3.7374027 3.7620926 3.7842968 3.806274 3.8287165 3.8501499 3.8711767
3.8918204 3.912023 3.9318256 3.951244 3.9702919 3.988984 4.0073333 4.0253515
4.0430512 4.060443 4.0775375 4.0943446 4.1108737 4.1271343 4.1431346 4.158883
-0.03554828 0.6947203 1.0961051 1.3520643 1.6090369 1.7919422 1.9462045 2.0792413
2.1962135 2.2968059 2.3992155 2.4848092 2.5608475 2.6394773 2.7080255 2.7725842
2.833745 2.890438 2.944151 2.991816 3.0439339 3.0890996 3.1354766 3.1780558
3.218877 3.258097 3.295837 3.3322046 3.3672957 3.4011974 3.4339647 3.4657404
3.4965076 3.5264366 3.5552943 3.5839844 3.611109 3.6381683 3.6592402 3.6892796
3.7178593 3.7370832 3.763088 3.784583 3.8050892 3.8289535 3.8501937 3.871119
3.891827 3.9120224 3.9318256 3.951238 3.9702919 3.9889846 4.0073333 4.0253515
4.0430512 4.060443 4.0775375 4.0943446 4.1108737 4.1271343 4.1431346 4.158883
00000000: 93b2 5bbc ef9f 313f b97d 8c3f 55fe ae3f
00000010: 1603 ce3f 6b5f e53f 461c f93f 8b12 0540
00000020: 0f98 0c40 f02a 1340 567f 1940 7908 1f40
00000030: adfb 2340 75e9 2840 ca50 2d40 1672 3140
00000040: 325a 3540 23fe 3840 9d6d 3c40 e294 3f40
00000050: 08d5 4240 a5ca 4540 dfab 4840 3c65 4b40
00000060: 1002 4e40 a784 5040 feee 5240 d742 5540
00000070: c681 5740 38ad 5940 38c6 5b40 b6ce 5d40
00000080: cec6 5f40 f5b0 6140 438a 6340 db5e 6540
00000090: 861e 6740 03d6 6840 a554 6a40 9e1b 6c40
000000a0: b9cf 6d40 9b31 6f40 20c6 7040 eb31 7240
000000b0: fe99 7340 b109 7540 db68 7640 5cc1 7740
000000c0: 9613 7940 965e 7a40 08a3 7b40 2fe1 7c40
000000d0: 4319 7e40 844b 7f40 133c 8040 aecf 8040
000000e0: ad60 8140 26ef 8140 307b 8240 df04 8340
000000f0: 478c 8340 7c11 8440 8f94 8440 9215 8540
00000100: 139b 11bd 31d9 313f 2c4d 8c3f 7110 ad3f
00000110: ecf4 cd3f 5d5e e53f 3b1d f93f 4a12 0540
00000120: c38e 0c40 defe 1240 bf8c 1940 1d07 1f40
00000130: ede4 2340 32ed 2840 4a50 2d40 0572 3140
00000140: 145c 3540 f0fc 3840 f86c 3c40 ea79 3f40
00000150: d0cf 4240 cfb3 4540 a6ab 4840 4465 4b40
00000160: 1502 4e40 a984 5040 feee 5240 d742 5540
00000170: c681 5740 38ad 5940 14c6 5b40 b1ce 5d40
00000180: c8c6 5f40 23b1 6140 f189 6340 0060 6540
00000190: 691c 6740 c0d7 6840 fe30 6a40 281d 6c40
000001a0: 68f1 6d40 5f2c 6f40 6fd6 7040 9c36 7240
000001b0: 9586 7340 930d 7540 9369 7640 6ac0 7740
000001c0: b213 7940 935e 7a40 08a3 7b40 15e1 7c40
000001d0: 4319 7e40 864b 7f40 133c 8040 aecf 8040
000001e0: ad60 8140 26ef 8140 307b 8240 df04 8340
000001f0: 478c 8340 7c11 8440 8f94 8440 9215 8540

onnx::Mul_186 f4 [2]
1.5084438 1.5704038
00000000: b014 c13f fe02 c93f

onnx::MatMul_187 f4 [2, 129]
0.19054009 0.31423163 0.17836612 -0.13403839 -0.24551654 0.22921042 0.073019244 0.18676853
-0.16822413 -0.12739044 0.018252417 -0.007635181 0.008623489 0.11761231 -0.02620437 0.10980852
-0.043632332 0.19370772 0.109496064 0.12631078 -0.0884639 -0.09095773 0.20772181 0.18943772
-0.005549037 -0.07791833 0.16779065 0.17036325 0.17797042 -0.1612583 -0.13161275 0.20083594
-0.05925419 0.1785817 -0.05206996 -0.0064284317 -0.045084037 -0.09412805 0.16650946 0.15256222
-0.1895028 -0.06124943 0.08156014 -0.1787808 0.13403729 -0.037057627 -0.013114068 0.044956814
0.16746409 -0.060709465 0.09462939 -0.076635346 -0.05438545 0.008011364 0.16307221 0.122695364
-0.20485327 0.20008841 0.15209554 -0.19163911 0.07271172 -0.08543234 0.056327786 0.085316
-0.14702092 0.023170622 -0.039643016 0.103799805 -0.20808132 -0.016190048 0.13856895 0.15678602
0.14204876 0.059834316 0.1391335 0.12598479 -0.18774727 -0.12051032 0.20271507 -0.0416394
-0.15134682 -0.17877942 0.21838088 -0.1284716 0.112932324 -0.16552243 -0.0011725853 -0.007654091
0.1580695 -0.010136892 0.11863404 0.20721799 0.019235406 0.06639507 -0.13072386 0.17938635
0.05394895 0.013846044 0.13258208 -0.12102341 -0.002709367 -0.18941104 -0.09109044 0.1334766
0.0035530222 -0.0016121119 -0.019455932 -0.11874193 -0.022138327 -0.18470174 -0.05236765 0.16546135
-0.19756146 -0.08745128 -0.12409893 0.051836845 -0.20567846 0.13330297 0.18656886 0.20433728
0.10553344 0.1090331 -0.007855203 0.14720649 -0.18361284 0.15550624 0.11263103 -0.07287163
0.19492221 -0.018096615 -0.014696704 -0.17715031 -0.019591734 -0.27453095 -0.140467 -0.055383943
-0.08178895 0.17078291 -0.0527443 0.13359821 -0.074310355 -0.03639372 -0.24056971 -0.0027295079
-0.061485898 0.00451163 0.09818353 0.098492004 -0.16189545 0.20651215 0.16954619 -0.0007818858
-0.060871936 0.030033108 0.028500536 0.09723363 -0.18108702 -0.14667332 0.20007564 0.1276162
0.15416798 -0.06939882 0.07475257 -0.09681117 -0.052843403 0.18524416 -0.13214158 -0.19468814
0.0714837 0.19409901 0.15725885 -0.100921884 0.1867447 0.07091231 -0.17252135 -0.16883765
-0.06163956 -0.16569239 0.012482433 -0.033393297 0.02420283 -0.124870785 0.13050283 0.1808903
0.081336215 0.044487815 -0.13322216 0.17188051 -0.12225811 -0.07354033 -0.085500404 -0.0677725
-0.11477621 0.15110983 0.20623332 0.004876949 -0.15101494 -0.14349672 0.20144196 -0.014168813
-0.13579707 -0.06944612 -0.15784764 0.20167032 0.07689632 -0.0766657 -0.2010845 -0.041179936
0.15929039 -0.0017443331 -0.17984363 -0.17480728 0.023810802 0.11578152 0.1693646 0.20085809
0.025810523 -0.14113931 -0.13146603 -0.10699473 -0.060177457 0.201007 0.113852546 0.10552832
0.038116377 0.037159886 0.0009187507 0.023068039 -0.03860214 -0.1361881 0.15802543 0.17707276
0.13987832 -0.04666673 -0.20252937 -0.079439454 -0.12896778 -0.02034668 -0.093154415 0.10891643
-0.0015875422 -0.008974798 0.18270604 0.011628502 -0.07395855 -0.0083823465 -0.08644904 -0.05013571
0.01045592 -0.053941727 0.19689359 -0.13038644 0.13615386 -0.0640993 -0.09463238 -0.031683095
00000000: f11c 433e f8e2 a03e 9ca5 363e 5c41 09be
00000010: b068 7bbe 23b6 6a3e 1d8b 953d 4040 3f3e
00000020: f242 2cbe a472 02be 1886 953c 8a30 fabb
00000030: 8949 0d3c b9de f03d 8caa d6bc 4ae3 e03d
00000040: d1b7 32bd 515b 463e 793f e03d 9d57 013e
00000050: 902c b5bd 0c48 babd 07b5 543e f6fb 413e
00000060: b2d4 b5bb a593 9fbd 50d1 2b3e b473 2e3e
00000070: e13d 363e e520 25be 7ec5 06be f0a7 4d3e
00000080: 86b4 72bd 1fde 363e 4f47 55bd 98a5 d2bb
00000090: 0aaa 38bd 35c6 c0bd 7581 2a3e 4539 1c3e
000000a0: 060d 42be afe0 7abd 0109 a73d 5012 37be
000000b0: 1241 093e bdc9 17bd 63dc 56bc a324 383d
000000c0: b57b 2b3e 7daa 78bd 0ecd c13d fef2 9cbd
000000d0: 47c3 5ebd 1942 033c 67fc 263e b547 fb3d
000000e0: 0ec5 51be fae3 4c3e efbe 1b3e 0b3d 44be
000000f0: e2e9 943d 27f7 aebd f7b7 663d 28ba ae3d
00000100: a78c 16be 51d0 bd3c b760 22bd fe94 d43d
00000110: 4513 55be fea0 84bc 05e5 0d3e 848c 203e
00000120: 3b75 113e d414 753d 0379 0e3e 2802 013e
00000130: d240 40be 1dce f6bd 8a94 4f3e 138e 2abd
00000140: a9fa 1abe f411 37be 3d9f 5f3e 0f8e 03be
00000150: 1049 e73d b67e 29be 6fb1 99ba 2bcf fabb
00000160: f9dc 213e 3515 26bc 67f6 f23d f430 543e
00000170: 9293 9d3c 23fa 873d 7adc 05be 0eb1 373e
00000180: 93f9 5c3d 85da 623c 99c3 073e 1fdb f7bd
00000190: a38f 31bb f8f4 41be a08d babd 17ae 083e
000001a0: d2d9 683b 804d d3ba 0c62 9fbc f82e f3bd
000001b0: 705b b5bc 7422 3dbe 767f 56bd b36e 293e
000001c0: 8d4d 4abe a819 b3bd 9427 febd df52 543d
000001d0: 609d 52be 9380 083e e80b 3f3e cb3d 513e
000001e0: eb21 d83d bf4c df3d 1cb3 00bc 4cbd 163e
000001f0: 0105 3cbe 073d 1f3e 19ab e63d b93d 95bd
00000200: b099 473e 5a3f 94bc 72ca 70bc e466 35be
00000210: d87e a0bc 528f 8cbe 95d6 0fbe 46da 62bd
00000220: f780 a7bd b7e1 2e3e 680a 58bd f8cd 083e
00000230: 0730 98bd 9511 15bd e857 76be 8be1 32bb
00000240: a3d8 7bbd 4cd6 933b 7214 c93d 2db6 c93d
00000250: ecc7 25be ec77 533e 849d 2d3e 78f7 4cba
00000260: da54 79bd fe07 f63c f579 e93c 6d22 c73d
00000270: e06e 39be 8831 16be a1e0 4c3e d2ad 023e
00000280: 36de 1d3e f820 8ebd e017 993d ef44 c6bd
00000290: 5372 58bd a5b0 3d3e 1f50 07be 545c 47be
000002a0: 0c66 923d e4c1 463e 7708 213e 22b0 cebd
000002b0: 013a 3f3e 793a 913d 70a9 30be c7e3 2cbe
000002c0: c379 7cbd 44ab 29be 1e83 4c3c 69c7 08bd
000002d0: 0345 c63c 41bc ffbd 89a2 053e 4f3b 393e
000002e0: 9a93 a63d db38 363d 646b 08be 7201 303e
000002f0: 7662 fabd 509c 96bd d61a afbd 4fcc 8abd
00000300: ca0f ebbd 89bc 1a3e d42e 533e d0ce 9f3b
00000310: a9a3 1abe cef0 12be cd46 4e3e 4f24 68bc
00000320: 630e 0bbe c439 8ebd d0a2 21be aa82 4e3e
00000330: d17b 9d3d e802 9dbd 18e9 4dbe 4bac 28bd
00000340: 051d 233e 1ba2 e4ba ee28 38be ae00 33be
00000350: df0e c33c dd1e ed3d ea6d 2d3e bead 4d3e
00000360: 9770 d33c d386 10be 089f 06be 0e20 dbbd
00000370: a37c 76bd c7d4 4d3e 862b e93d 3b1f d83d
00000380: eb1f 1c3d f734 183d 51d8 703a 2ff9 bc3c
00000390: 471d 1ebd e574 0bbe 6bd1 213e 9052 353e
000003a0: 433c 0f3e 9d25 3fbd dc63 4fbe 27b1 a2bd
000003b0: 2110 04be 15ae a6bc bec7 bebd 940f df3d
000003c0: 1415 d0ba 080b 13bc 4b17 3b3e 7985 3e3c
000003d0: 9577 97bd 1c56 09bc 320c b1bd 1a5b 4dbd
000003e0: 4f4f 2b3c 00f2 5cbd 799e 493e 0684 05be
000003f0: eb6b 0b3e 7e46 83bd 9fce c1bd 22c6 01bd

onnx::MatMul_188 f4 [1, 2]
0.06357271 1.0203115
00000000: 6932 823d 9199 823f

onnx::MatMul_198 f4 [2, 1]
0.98182845 1.9028692
00000000: 1c59 7b3f 3891 f33f

onnx::MatMul_199 f4 [1, 8]
-0.23023647 1.1694431 -1.118674 1.014311 1.2260754 -0.7199373 -0.9365044 0.61289006
00000000: 1cc3 6bbe 50b0 953f b630 8fbf f1d4 813f
00000010: 0af0 9c3f d04d 38bf c1be 6fbf 5de6 1c3f

onnx::MatMul_200 f4 [2, 16]
-0.17075863 -0.100250736 -0.32257754 -0.46506572 0.79525 -0.52910686 -0.2158005 -0.22032924
-0.3582235 0.0287738 0.15050767 -0.059910968 0.14296494 0.5207749 -0.5367982 -0.5563296
0.18076508 0.44552523 -0.9882683 -0.7605675 0.48340568 0.9429909 -0.5236462 -0.76375765
0.49332425 0.52882946 -0.31805706 0.04569763 -0.020099146 0.4253943 -0.44735613 -0.6588335
00000000: 5adb 2ebe 4250 cdbd e228 a5be 181d eebe
00000010: 8195 4b3f 8c73 07bf cefa 5cbe fd9d 61be
00000020: 1269 b7be 08b7 eb3c af1e 1a3e 3465 75bd
00000030: 6765 123e 8151 053f 9b6b 09bf 9e6b 0ebf
00000040: 7b1a 393e e21b e43e 27ff 7cbf 8db4 42bf
00000050: f380 f73e da67 713f ad0d 06bf 9f85 43bf
00000060: ff94 fc3e 5e61 073f 60d8 a2be 702d 3b3d
00000070: f7a6 a4bc 48cd d93e dd0b e5be 50a9 28bf

onnx::MatMul_201 f4 [8, 16]
-0.37991017 0.50062674 -0.40027002 -0.35532555 -0.15688758 -0.5062683 0.54076767 0.36820433
-0.038504206 -0.6561592 0.42331856 -0.03920663 -0.6288866 0.3763007 0.13055716 0.3981993
-0.07335771 0.5549951 0.45358637 0.47204065 -0.28692123 -0.3550273 0.37470832 -0.08378882
0.45148554 -0.47850728 -0.23335807 -0.08185945 -0.31675124 0.4807923 0.22267646 -0.21256173
0.2332251 0.37438217 0.5891847 -0.3833277 -0.28054327 0.45411158 0.17667122 -0.5332052
0.51244795 -0.1366238 -0.40335798 0.30245796 0.17699736 0.46408057 -0.16052662 -0.21769741
-0.39437652 -0.4379748 -0.8452447 0.33431396 -0.23329015 -0.22372213 -0.23898669 0.031833507
-0.3237386 -0.11920058 0.16958053 0.37620053 -0.36502603 0.09900466 0.2403568 0.7061246
0.45354792 0.45113447 0.545536 -0.13203661 -0.5349616 0.19748467 0.47559357 -0.2525272
0.11056615 -0.039676256 -0.5414828 0.022341639 -0.1886825 0.4629633 0.18835986 -0.13722493
-0.5579414 -0.2319226 -0.22100973 0.4811742 0.34481302 0.13601156 0.03211334 0.12703419
-0.20500734 -0.015769666 0.06432401 -0.37087372 0.3714464 -0.36861125 -0.44404897 -0.25302774
0.52227473 -0.00978065 0.49592397 0.46007597 -0.024544017 -0.3414459 -0.0902344 0.42073202
0.34431294 0.58115965 -0.33597922 -0.22638933 -0.015991356 -0.24510951 0.41945451 0.29054576
0.61936224 -0.23812649 0.08790939 -0.5171385 0.15434916 0.3027341 0.40764394 -0.18237276
-0.27794543 0.027128896 -0.13973181 0.5173796 0.16278253 0.22271241 0.09654534 -0.16162619
00000000: 9683 c2be 1329 003f 31f0 ccbe 3bed b5be
00000010: 23a7 20be cd9a 01bf c06f 0a3f 4785 bc3e
00000020: 96b6 1dbd 0dfa 27bf 36bd d83e 2297 20bd
00000030: b6fe 20bf 7caa c03e c7b0 053e c7e0 cb3e
00000040: 913c 96bd 2914 0e3f 793c e83e 50af f13e
00000050: 57e7 92be 23c6 b5be c5d9 bf3e 7999 abbd
00000060: 1d29 e73e e8fe f4be 6bf5 6ebe eda5 a7bd
00000070: 382d a2be 692a f63e 4c05 643e c8a9 59be
00000080: 90d2 6e3e 05af bf3e cfd4 163f 8743 c4be
00000090: 5ea3 8fbe 5081 e83e 4de9 343e 2380 08bf
000000a0: ca2f 033f 1ce7 0bbe f084 cebe c5db 9a3e
000000b0: cc3e 353e f89b ed3e 1761 24be 12ec 5ebe
000000c0: b8eb c9be 3c3e e0be f561 58bf 332b ab3e
000000d0: 9de3 6ebe 6a17 65be edb8 74be da63 023d
000000e0: 11c1 a5be 6f1f f4bd 85a6 2d3e 5b9d c03e
000000f0: b1e4 babe f5c2 ca3d 1820 763e 95c4 343f
00000100: 6f37 e83e 19fb e63e 3fa8 0b3f 9b34 07be
00000110: 3ef3 08bf 6c39 4a3e 0081 f33e 3f4b 81be
00000120: 8170 e23d 9283 22bd 9e9e 0abf d005 b73c
00000130: fc35 41be 8709 ed3e 68e1 403e b184 0cbe
00000140: 3fd5 0ebf 1e7d 6dbe 6050 62be 775c f63e
00000150: 558b b03e 9d46 0b3e 4789 033d 4015 023e
00000160: 72ed 51be 632f 81bc 4ebc 833d 29e3 bdbe
00000170: 392e be3e 9dba bcbe 635a e3be da8c 81be
00000180: ccb3 053f 053f 20bc bfe9 fd3e 148f eb3e
00000190: 8910 c9bc ffd1 aebe d0cc b8bd 306a d73e
000001a0: c949 b03e e1c6 143f 7805 acbe 9bd2 67be
000001b0: 4e00 83bc fdfd 7abe bec2 d63e 6ac2 943e
000001c0: 868e 1e3f 6ed7 73be d709 b43d 3063 04bf
000001d0: b50d 1e3e f7ff 9a3e b5b6 d03e edbf 3abe
000001e0: dd4e 8ebe 6b3d de3c db15 0fbe fd72 043f
000001f0: 77b0 263e b90e 643e 90b9 c53d 5681 25be

onnx::MatMul_202 f4 [8, 1]
-0.3691197 -0.821949 0.6952193 -0.36596945 0.24085788 -0.90253454 -0.53774464 -0.33049995
00000000: 42fd bcbe 406b 52bf e4f9 313f 5960 bbbe
00000010: 73a3 763e 810c 67bf a2a9 09bf 4a37 a9be
