NeuralPiano/Models/NeuralPiano_grand.onnx (onnx, 14106 bytes, 16 tensors)

s6.conv1d.bias f4 [2]
-0.5514456 -0.5226302
00000000: 8a2b 0dbf 18cb 05bf

s6.conv1d.weight f4 [2, 1, 1]
1.2110028 -1.0198454
00000000: 2402 9b3f 4b8a 82bf

s6.delta_t_projection.bias f4 [2]
-0.010745136 -0.0314776
00000000: 5e0c 30bc a8ee 00bd

dense.bias f4 [8]
0.19578786 0.17968275 0.19886222 0.07882857 0.14788197 0.15577437 0.14072874 0.28704393
00000000: 9d7c 483e c1fe 373e 8aa2 4b3e e070 a13d
00000010: 5f6e 173e 5183 1f3e 321b 103e 6cf7 923e

film.bias f4 [16]
-0.031192029 0.34296024 -0.6252508 -0.20872432 0.5248913 0.18901119 -0.31137294 -0.46911076
0.016523026 0.08675583 -0.031770326 0.047493316 -0.1383428 -0.05487075 -0.020692643 -0.15028016
00000000: 6d86 ffbc 7c98 af3e 7010 20bf d4bb 55be
00000010: 475f 063f 268c 413e 466c 9fbe 492f f0be
00000020: 4c5b 873c 0aad b13d 9a21 02bd 5a88 423d
00000030: bca9 0dbe 27c0 60bd 9e83 a9bc 0be3 19be

glu.bias f4 [16]
-0.04539472 0.06885186 -0.01467391 0.003955154 -0.05406908 -0.084375046 -0.044998668 0.07019345
0.11997257 -0.054136313 0.06742678 -0.0048145517 0.00855624 0.043233577 -0.1622763 0.010554329
00000000: d0ef 39bd 3402 8d3d d76a 70bc 3d9a 813b
00000010: 8a77 5dbd d3cc acbd 8650 38bd 95c1 8f3d
00000020: 2eb4 f53d 0abe 5dbd 0d17 8a3d 63c3 9dbb
00000030: 792f 0c3c b115 313d c22b 26be 10ec 2c3c

onnx::MatMul_176 f4 [1, 4]
-0.14220753 0.42540348 -1.1603707 -0.8550535
00000000: da9e 11be 7cce d93e 0787 94bf c9e4 5abf

onnx::Exp_185 f4 [2, 64]
-0.022190202 0.69393975 1.0950893 1.400071 1.6085572 1.7906474 1.9459968 2.0792527
2.197435 2.306513 2.3969667 2.484855 2.5663056 2.638906 2.707975 2.7725847
2.8333344 2.8902645 2.9443915 2.9963553 3.0445902 3.0914547 3.1354897 3.1780539
3.218876 3.2580965 3.295837 3.3322046 3.3672957 3.4011974 3.4339168 3.4657402
3.4965076 3.5264678 3.5552137 3.5837638 3.6106303 3.63763 3.6636689 3.6887965
3.7132874 3.7375822 3.7610753 3.7843602 3.80676 3.828757 3.8501477 3.871201
3.8918204 3.912023 3.9318256 3.9512436 3.9702919 3.988984 4.0073333 4.0253515
4.0430512 4.060443 4.0775375 4.0943446 4.1108737 4.1271343 4.1431346 4.158883
-0.04834086 0.6944804 1.0952872 1.3987482 1.6083646 1.7900618 1.9460466 2.079228
2.1979158 2.3053286 2.3949974 2.484838 2.5652282 2.6382513 2.7081256 2.772563
2.8333757 2.8902566 2.9443014 2.9958334 3.044451 3.0926263 3.1354225 3.1780539
3.218876 3.2580965 3.295837 3.3322046 3.3672957 3.4011974 3.4339745 3.4657376
3.4965076 3.526492 3.5552819 3.5837424 3.610746 3.637761 3.66301 3.6888478
3.7132192 3.7376125 3.7609463 3.7840297 3.807872 3.828648 3.8501654 3.8712523
3.8918245 3.912023 3.9318256 3.9512396 3.9702919 3.988984 4.0073333 4.0253515
4.0430512 4.060443 4.0775375 4.0943446 4.1108737 4.1271343 4.1431346 4.158883
00000000: 3ac8 b5bc 09a6 313f e32b 8c3f 8735 b33f
00000010: 34e5 cd3f ef33 e53f 6c16 f93f 7a12 0540
00000020: c6a2 0c40 e99d 1340 e767 1940 dd07 1f40
00000030: 5a3e 2440 d6e3 2840 764f 2d40 0772 3140
00000040: 5a55 3540 18fa 3840 e970 3c40 49c4 3f40
00000050: 91da 4240 65da 4540 ddab 4840 3c65 4b40
00000060: 1002 4e40 a784 5040 feee 5240 d742 5540
00000070: c681 5740 38ad 5940 4bc5 5b40 b0ce 5d40
00000080: c8c6 5f40 a6b1 6140 9f88 6340 635c 6540
00000090: 9114 6740 eece 6840 8d79 6a40 3e15 6c40
000000a0: 80a6 6d40 8c34 6f40 75b5 7040 f532 7240
000000b0: f5a1 7340 5b0a 7540 d268 7640 c2c1 7740
000000c0: 9613 7940 965e 7a40 08a3 7b40 2de1 7c40
000000d0: 4319 7e40 844b 7f40 133c 8040 aecf 8040
000000e0: ad60 8140 26ef 8140 307b 8240 df04 8340
000000f0: 478c 8340 7c11 8440 8f94 8440 9215 8540
00000100: 1101 46bd 78c9 313f 5f32 8c3f 2e0a b33f
00000110: e4de cd3f bf20 e53f 0e18 f93f 1212 0540
00000120: a7aa 0c40 818a 1340 a347 1940 9607 1f40
00000130: b32c 2440 1cd9 2840 ee51 2d40 ac71 3140
00000140: 0756 3540 f7f9 3840 6f6f 3c40 bcbb 3f40
00000150: 49d8 4240 97ed 4540 c3aa 4840 3c65 4b40
00000160: 1002 4e40 a784 5040 feee 5240 d742 5540
00000170: c681 5740 38ad 5940 3dc6 5b40 a5ce 5d40
00000180: c8c6 5f40 0cb2 6140 bd89 6340 095c 6540
00000190: 7616 6740 14d1 6840 c16e 6a40 1516 6c40
000001a0: 62a5 6d40 0b35 6f40 58b3 7040 8b2d 7240
000001b0: 2db4 7340 9208 7540 1c69 7640 99c2 7740
000001c0: a713 7940 965e 7a40 08a3 7b40 1ce1 7c40
000001d0: 4319 7e40 844b 7f40 133c 8040 aecf 8040
000001e0: ad60 8140 26ef 8140 307b 8240 df04 8340
000001f0: 478c 8340 7c11 8440 8f94 8440 9215 8540

onnx::Mul_186 f4 [2]
1.56536 1.628738
00000000: b75d c83f 7d7a d03f

onnx::MatMul_187 f4 [2, 129]
0.19695088 0.27498016 0.13499472 -0.18400744 -0.15871747 0.13588777 0.024459172 0.19490835
-0.17749059 -0.1094334 -0.026841966 -0.03387955 0.03533675 0.14792289 -0.03656921 0.09674234
-0.035155714 0.21782134 0.11486465 0.13000506 -0.10101101 -0.095602214 0.19637285 0.18821093
-0.0018607804 -0.070313394 0.17128712 0.16724657 0.16637142 -0.16874439 -0.13351998 0.19462642
-0.063337415 0.17880039 -0.057536412 -0.0011752001 -0.036878914 -0.0982571 0.1588973 0.1431518
-0.18696333 -0.052721076 0.08473022 -0.17270115 0.13514401 -0.032450896 -0.015771104 0.043043856
0.16981044 -0.064664446 0.09571993 -0.07520796 -0.05203318 0.008976563 0.1625346 0.12028634
-0.2046283 0.19387178 0.15585561 -0.19687042 0.076319814 -0.08478314 0.055851586 0.09045353
-0.15249342 0.005187695 0.013788036 0.22508846 -0.021275975 -0.001745404 0.15445128 0.12718077
0.13530795 0.086383164 0.120843835 0.14265186 -0.18764228 -0.10392538 0.2061719 -0.04052297
-0.15008797 -0.19842747 0.20346671 -0.1207496 0.10166697 -0.17339878 -0.006783759 -0.009734895
0.15606861 -0.010132499 0.10875137 0.2128836 0.023383811 0.06009794 -0.13403106 0.16673055
0.05976374 0.005086794 0.13969243 -0.118204705 -0.012180433 -0.17979129 -0.084370784 0.1268823
-0.0014158952 -0.0074818535 -0.01721755 -0.12261415 -0.02607218 -0.17959124 -0.047509015 0.1667384
-0.19503345 -0.08692769 -0.12430961 0.05198746 -0.20189685 0.12972547 0.1802997 0.20095795
0.10664196 0.11056742 -0.013944952 0.15253037 -0.18256147 0.1586492 0.11386204 -0.07093015
0.19270241 -0.012159217 -0.06487382 -0.21690632 -0.059426717 -0.17643844 -0.24036148 -0.10881929
-0.07447537 0.15899172 -0.030265037 0.07713966 -0.10827164 -0.0003744428 -0.19974634 -0.018813852
-0.078871846 0.018330336 0.13314101 0.10240089 -0.15472268 0.18710902 0.16497582 -0.01756952
-0.062738575 0.03320912 0.03995422 0.10031707 -0.18827099 -0.16404706 0.18795507 0.12657623
0.1423517 -0.076022625 0.074480794 -0.10645765 -0.04336604 0.19719738 -0.13538598 -0.2045718
0.055760805 0.19777535 0.16993098 -0.09586588 0.19708122 0.07273783 -0.16367969 -0.17237204
-0.06607904 -0.16028719 0.007135711 -0.030583216 0.025963165 -0.11934775 0.13072266 0.17826715
0.07573538 0.04391766 -0.14387132 0.17770872 -0.13159135 -0.06631411 -0.085821725 -0.069531426
-0.10607898 0.14090939 0.16897543 0.057510614 -0.025529249 0.052641086 0.21266451 0.00015016571
-0.16965353 -0.07721402 -0.12434498 0.17713508 0.0970007 -0.075102754 -0.17979413 -0.03673993
0.15871993 0.0011409101 -0.20875409 -0.19684018 0.032834448 0.10073994 0.15934953 0.18977338
0.02022231 -0.14397325 -0.13007295 -0.12364177 -0.054392617 0.20430535 0.10659095 0.102481894
0.016898459 0.046470318 -0.014262032 0.034129385 -0.034082025 -0.1493567 0.17342062 0.18449603
0.12800148 -0.051652737 -0.21039964 -0.07688267 -0.13287073 -0.027615676 -0.08478041 0.11656221
-0.00010238808 -0.0065242373 0.18402903 0.010464919 -0.07299123 -0.0019057152 -0.092131615 -0.061324663
0.004024482 -0.05042313 0.19736533 -0.14112757 0.14599209 -0.06305945 -0.088956386 -0.030325662
00000000: 7ead 493e 33ca 8c3e 0e3c 0a3e 726c 3cbe
00000010: d586 22be 2a26 0b3e 9a5e c83c 0e96 473e
00000020: 18c0 35be 9e1e e0bd afe3 dbbc 48c5 0abd
00000030: 45bd 103d 1979 173e 99c9 15bd d920 c63d
00000040: 70ff 0fbd 8f0c 5f3e 283e eb3d 0c20 053e
00000050: dcde cebd 18cb c3bd f715 493e 5eba 403e
00000060: 6ee5 f3ba 7800 90bd e465 2f3e af42 2b3e
00000070: 455d 2a3e 54cb 2cbe 76b9 08be 264c 473e
00000080: 0cb7 81bd 7317 373e 4dab 6bbd 2c09 9aba
00000090: 580e 17bd 053b c9bd f9b5 223e 6396 123e
000000a0: 5173 3fbe 0ef2 57bd 0a87 ad3d 92d8 30be
000000b0: 3163 0a3e 3beb 04bd 6732 81bc c14e 303d
000000c0: cae2 2d3e cb6e 84bd d008 c43d a206 9abd
000000d0: be20 55bd 6f12 133c 786f 263e af58 f63d
000000e0: 158a 51be 5386 463e 9d98 1f3e 6698 49be
000000f0: 904d 9c3d c8a2 adbd a2c4 643d b33f b93d
00000100: 3c27 1cbe 8afd a93b 37e7 613c 977d 663e
00000110: f44a aebc 0ac6 e4ba 7a28 1e3e ad3b 023e
00000120: 2b8e 0a3e a8e9 b03d f97c f73d 5413 123e
00000130: 4c25 40be d4d6 d4bd ba1e 533e 6afb 25bd
00000140: a9b0 19be 9230 4bbe 9459 503e 914b f7bd
00000150: c636 d03d 738f 31be 4c4a debb 1c7f 1fbc
00000160: 73d0 1f3e c802 26bc 0ab9 de3d 29fe 593e
00000170: 688f bf3c 4229 763d 703f 09be 6abb 2a3e
00000180: d3ca 743d 1faf a63b 880b 0f3e 4f15 f2bd
00000190: 7090 47bc 351b 38be 97ca acbd 6fed 013e
000001a0: 8f95 b9ba 562a f5bb d20b 8dbc 211d fbbd
000001b0: 5395 d5bc c4e6 37be d098 42bd 79bd 2a3e
000001c0: d9b6 47be 2507 b2bd 0996 febd cef0 543d
000001d0: 0cbe 4ebe c1d6 043e 7ca0 383e ecc7 4d3e
000001e0: 1a67 da3d 2c71 e23d 5e79 64bc ec30 1c3e
000001f0: 65f1 3abe f074 223e 8030 e93d d443 91bd
00000200: c853 453e 7437 47bc 91dc 84bd b11c 5ebe
00000210: 6e69 73bd 47ac 34be 5221 76be a6dc debd
00000220: 8b86 98bd bace 223e 62ee f7bc 66fb 9d3d
00000230: 86bd ddbd dd50 c4b9 4e8a 4cbe 821f 9abc
00000240: 9087 a1bd 8029 963c 1e56 083e 8fb7 d13d
00000250: 9f6f 1ebe 8299 3f3e 6cef 283e f4ed 8fbc
00000260: 157d 80bd 4906 083d 09a7 233d 0973 cd3d
00000270: 1cca 40be f4fb 27be 4b77 403e 339d 013e
00000280: a5c4 113e c0b1 9bbd 6389 983d 7806 dabd
00000290: 97a0 31bd 1cee 493e 9fa2 0abe 457b 51be
000002a0: 7165 643d 9f85 4a3e 6302 2e3e 5555 c4bd
000002b0: a9cf 493e 92f7 943d a69b 27be 4c82 30be
000002c0: 7354 87bd 5322 24be afd2 e93b a789 fabc
000002d0: b4b0 d43c 986c f4bd 29dc 053e aa8b 363e
000002e0: 271b 9b3d 01e3 333d 0153 13be 46f9 353e
000002f0: e2bf 06be b1cf 87bd 4dc3 afbd 7e66 8ebd
00000300: f03f d9bd 8d4a 103e e507 2d3e 4090 6b3d
00000310: b722 d1bc 2e9e 573d bac4 593e cd75 1d39
00000320: a8b9 2dbe 6222 9ebd 95a8 febd e662 353e
00000330: 4ea8 c63d 79cf 99bd f41b 38be 9c7c 16bd
00000340: 7a87 223e 978a 953a a2c3 55be 7990 49be
00000350: 6a7d 063d be50 ce3d 862c 233e f453 423e
00000360: 42a9 a53c b96d 13be d831 05be e537 fdbd
00000370: cbca 5ebd 6c35 513e 5b4c da3d 07e2 d13d
00000380: a36e 8a3c a957 3e3d 4cab 69bc 41cb 0b3d
00000390: 9899 0bbd f6f0 18be 2d95 313e 87ec 3c3e
000003a0: d212 033e d291 53bd 0173 57be a974 9dbd
000003b0: 440f 08be 453a e2bc 5aa1 adbd 2bb8 ee3d
000003c0: 2fb9 d6b8 45c9 d5bb 1b72 3c3e 0d75 2b3c
000003d0: 6d7c 95bd 31c9 f9ba 80af bcbd 922f 7bbd
000003e0: cddf 833b 7c88 4ebd 231a 4a3e bf83 10be
000003f0: f37e 153e 5025 81bd c42e b6bd 866d f8bc

onnx::MatMul_188 f4 [1, 2]
0.0643566 1.0216528
00000000: 65cd 833d 85c5 823f

onnx::MatMul_198 f4 [2, 1]
1.0431234 1.9578815
00000000: 1185 853f dc9b fa3f

onnx::MatMul_199 f4 [1, 8]
0.37418535 1.2062718 -1.152414 1.1201342 1.292428 -0.6267264 -0.92804736 0.7633741
00000000: 3995 bf3e 1d67 9a3f 4d82 93bf 8f60 8f3f
00000010: 486e a53f 2471 20bf 8394 6dbf 7c6c 433f

onnx::MatMul_200 f4 [2, 16]
-0.187517 -0.036693417 -0.4306743 -0.48956463 0.8964176 -0.4994754 -0.10876521 -0.2682989
-0.5002737 0.014123872 0.16658604 -0.070423625 0.14089303 0.46763042 -0.43416807 -0.5586304
0.6155799 0.5744801 -1.0832671 -0.9588235 0.6265224 0.97561854 -0.6501447 -0.8798407
0.54912555 0.5225841 -0.3398767 0.07612557 -0.0502066 0.42848727 -0.4579479 -0.6592444
00000000: 7504 40be d64b 16bd 5881 dcbe 37a8 fabe
00000010: a07b 653f 3dbb ffbe 4bc0 debd 795e 89be
00000020: f011 00bf d067 673c 8895 2a3e 433a 90bd
00000030: 4346 103e 416d ef3e 474b debe 6702 0fbf
00000040: a596 1d3f 2111 133f 7fa8 8abf 7575 75bf
00000050: c663 203f 23c2 793f e26f 26bf 3d3d 61bf
00000060: 7e93 0c3f 12c8 053f 5204 aebe b9e7 9b3d
00000070: 70a5 4dbd af62 db3e 2678 eabe 3ec4 28bf

onnx::MatMul_201 f4 [8, 16]
-0.45761687 0.48454577 -0.4686932 -0.37433675 -0.17371784 -0.51863706 0.50611526 0.61215717
-0.09954163 -0.80455774 0.48024318 -0.014348327 -0.78484315 0.40710178 0.13897224 0.34267536
-0.14295161 0.5292901 0.42333585 0.44440404 -0.29062954 -0.42538702 0.32803527 0.12959825
0.4625522 -0.44204772 -0.20530495 -0.03998541 -0.35711616 0.5144193 0.2084435 -0.24463668
0.28154323 0.4120716 0.60825974 -0.36141974 -0.32271886 0.46463442 0.18543977 -0.35810995
0.4765791 -0.18510251 -0.3727394 0.32142472 0.21708263 0.4394015 -0.1646403 -0.33935267
-0.08052142 -0.5225633 -0.92729694 0.2974827 -0.07524213 0.08530285 -0.23587845 -0.523316
-0.3067566 -0.045471694 0.10437567 0.28025183 -0.2499574 0.09020149 0.3970455 0.9084409
0.105530486 0.4691183 0.5455897 -0.1727277 -0.6732337 -0.31707752 0.35107276 0.053401913
0.027871361 0.0076141004 -0.41966778 0.21254039 -0.2967597 0.43928832 -0.027581705 -0.29718408
-0.6205128 -0.27277222 -0.22321756 0.43924043 0.3525103 0.08618682 -0.012941019 0.12375463
-0.17891614 0.1385081 0.037924808 -0.3309294 0.38634142 -0.32606524 -0.4532012 -0.22231725
0.5546972 0.03711257 0.49819303 0.4983843 -0.054903883 -0.32604614 -0.060667954 0.4523956
0.30951333 0.40499288 -0.29973304 -0.250292 -0.06970969 -0.2820211 0.40263277 0.22294566
0.6515563 -0.19629358 0.10077847 -0.47340307 0.13972981 0.34160158 0.45644727 -0.29138824
-0.30186245 -0.110809445 -0.13610987 0.46488532 0.11602789 0.20209327 0.08880063 -0.15778522
00000000: c24c eabe 6216 f83e 8ef8 efbe 11a9 bfbe
00000010: 17e3 31be 66c5 04bf c590 013f 55b6 1c3f
00000020: 7bdc cbbd 7ff7 4dbf 6fe2 f53e 3f15 6bbc
00000030: 7beb 48bf a56f d03e bd4e 0e3e 2573 af3e
00000040: e861 12be 8e7f 073f 7abf d83e ed88 e33e
00000050: 65cd 94be 54cc d9be 3df4 a73e 67b5 043e
00000060: a4d3 ec3e 1454 e2be 763b 52be bec7 23bd
00000070: eed7 b6be fcb0 033f 3672 553e 0a82 7abe
00000080: 6f26 903e 0cfb d23e e9b6 1b3f 020c b9be
00000090: 683b a5be 90e4 ed3e ece3 3d3e 305a b7be
000000a0: 2d02 f43e 838b 3dbe b3d7 bebe c891 a43e
000000b0: e94a 5e3e 3cf9 e03e 7897 28be a2bf adbe
000000c0: 6ae8 a4bd b5c6 05bf 5563 6dbf a74f 983e
000000d0: 8c18 9abd 43b3 ae3d 1f8a 71be 0af8 05bf
000000e0: 330f 9dbe 8740 3abd e9c2 d53d 2b7d 8f3e
000000f0: d5f4 7fbe 8fbb b83d 8c49 cb3e 958f 683f
00000100: 5e20 d83d 4630 f03e c4ab 0b3f 88df 30be
00000110: 0b59 2cbf fc57 a2be cfbf b33e f7bb 5a3d
00000120: 7b52 e43c b47f f93b b2de d6be 30a4 593e
00000130: e3f0 97be 66ea e03e 07f3 e1bc 8328 98be
00000140: edd9 1ebf cda8 8bbe 2593 64be 1fe4 e03e
00000150: 3b7c b43e b782 b03d 9106 54bc 1173 fd3d
00000160: cb35 37be 11d5 0d3e 0b57 1b3d 946f a9be
00000170: 8bce c53e 06f2 a6be fd09 e8be 22a7 63be
00000180: a300 0e3f 5a03 183d 2813 ff3e 3a2c ff3e
00000190: e5e2 60bd 85ef a6be f67e 78bd 65a0 e73e
000001a0: 8878 9e3e 3a5b cf3e 9c76 99be 4626 80be
000001b0: f4c3 8ebd 1265 90be e225 ce3e de4b 643e
000001c0: 65cc 263f 2f01 49be f164 ce3d e361 f2be
000001d0: 5515 0f3e 67e6 ae3e 75b3 e93e d730 95be
000001e0: b78d 9abe 10f0 e2bd 6360 0bbe 7305 ee3e
000001f0: 08a0 ed3d 8af1 4e3e 1bdd b53d 7392 21be

onnx::MatMul_202 f4 [8, 1]
-0.3977611 -0.83826405 0.7114263 -0.33662587 0.33952752 -0.9045825 -0.53625727 -0.42943552
00000000: 58a7 cbbe 7998 56bf 0920 363f 3a5a acbe
00000010: 8dd6 ad3e b892 67bf 2848 09bf f9de dbbe
