NeuralPiano/Models/UprightPiano.onnx (onnx, 4300 bytes, 8 tensors)

film.bias f4 [16]
-0.31435913 0.23078512 -0.21282756 0.04297117 0.08652466 -0.3005769 -0.18619563 -0.4088206
0.05166808 -0.06010998 0.1866544 -0.22015737 -0.11995357 -0.20619754 0.07421107 0.011951971
00000000: aef3 a0be ef52 6c3e 78ef 59be 8a02 303d
00000010: d733 b13d 37e5 99be 11aa 3ebe ef50 d1be
00000020: e9a1 533d e235 76bd 5522 3f3e ef70 61be
00000030: 38aa f5bd 7325 53be f9fb 973d 33d2 433c

glu.bias f4 [16]
-0.17785925 -0.07496032 0.12930544 -0.11920229 -0.018309943 -0.21558258 0.26482427 0.0751424
0.00044204772 0.14845145 0.023578221 0.029670864 -0.025949707 -0.011877786 0.011976015 0.2634308
00000000: bc20 36be cc84 99bd a568 043e 5520 f4bd
00000010: bcfe 95bc aec1 5cbe 0c97 873e 42e4 993d
00000020: a4c2 e739 a803 183e 1d27 c13c 5010 f33c
00000030: 7b94 d4bc 0c9b 42bc 0c37 443c 67e0 863e

onnx::LSTM_114 f4 [1, 32, 1]
-0.4396312 0.41449395 -0.35589972 0.09007959 -0.027983086 0.22224455 0.046450507 -0.35619354
-0.355053 0.946966 -0.7492338 0.29917032 -0.044787083 0.6095681 0.33496857 0.013404006
0.21550307 0.20884457 -0.51174355 0.14370452 -0.12576564 0.3950309 0.40573278 -0.17627497
0.23711549 -0.18997075 0.20895201 -0.2358372 -0.28184888 0.53738755 0.348053 0.44392186
00000000: 5717 e1be 8d38 d43e 7d38 b6be a67b b83d
00000010: c93c e5bc 1394 633e e342 3e3d 005f b6be
00000020: 82c9 b5be 5d6c 723f c9cd 3fbf da2c 993e
00000030: a972 37bd a80c 1c3f 0081 ab3e 7a9c 5b3c
00000040: d6ac 5c3e 5adb 553e a001 03bf 4727 133e
00000050: b5c8 00be 7d41 ca3e 35bc cf3e 6d81 34be
00000060: 67ce 723e b187 42be 84f7 553e 4f7f 71be
00000070: 7f4e 90be 3b92 093f 0134 b23e ba49 e33e

onnx::LSTM_115 f4 [1, 32, 8]
0.06434827 -0.2360125 0.11880964 -0.052060746 0.03890117 0.093777984 0.23990943 -0.17313251
0.31464395 0.29841658 -0.19024156 0.07214764 -0.077064596 0.082052924 -0.3171794 0.11001756
-0.5045925 0.096763186 -0.45709905 0.018092753 0.12809719 -0.07358209 0.059259046 -0.53312033
-0.24124037 0.067572124 -0.19259946 0.1984883 0.10170449 0.21444179 -0.14230284 -0.0845175
-0.16240755 -0.09587161 0.046774432 0.27711853 0.28910068 0.07942858 -0.27520868 -0.37642172
-0.526294 -0.14142308 -0.5821167 -0.07676374 -0.045399196 0.1537922 0.53358626 0.009914991
-0.33662102 -0.28884518 -0.22867142 0.030521087 -0.11193842 -0.026918864 0.22183287 -0.031377815
-0.08729524 -0.19960757 -0.07828905 0.16891442 0.08942465 0.6163417 0.2362247 -0.10894683
0.01643158 0.016405616 -0.35097307 0.33470204 0.0026324962 0.25019884 0.0149018755 0.041735
0.034325954 -0.14897023 -0.07146196 -0.18137813 -0.41229314 0.11908011 0.1624042 0.20734333
-0.24044968 0.34580085 -0.30161735 0.06622264 -0.015713874 -0.5336763 -0.22882819 -0.44552556
-0.14930476 -0.070388705 0.23175415 0.33917236 -0.20257571 -0.19090948 -0.0680296 0.32642585
-0.11455483 -0.39819828 -0.19836396 -0.023623306 -0.084028095 -0.21655425 -0.040782787 -0.20746242
-0.21716438 -0.42702508 -0.6465447 0.031883653 -0.11646559 0.22738922 0.24145296 0.50324076
-0.27097338 -0.06417691 -0.41193584 -0.6083157 -0.37868416 0.37360504 -0.15043168 -0.2752084
-0.3290215 -0.16245584 -0.2998517 0.13510713 -0.38677934 0.1898966 0.36995482 -0.23952156
0.14750133 -0.09653717 -0.35765758 -0.11932094 0.08671905 -0.04223262 -0.14287668 0.33855584
0.004172557 0.27034858 0.23889777 -0.1775169 0.20337637 -0.072594896 0.23669603 0.44156426
-0.14012527 -0.030760558 -0.32711104 0.3835542 -0.0075730467 -0.22567888 -0.05653561 -0.39183035
0.17626034 0.20991266 -0.14146875 0.10957675 -0.029614823 -0.07150359 -0.062099863 0.12324224
0.094033785 0.3119853 0.11078442 -0.03396022 0.21499978 -0.12960307 -0.1704859 0.41790038
0.17825368 0.15354218 -0.28964883 0.018889535 0.13766366 -0.09670166 0.11737493 0.583388
-0.027024535 0.50715953 -0.096793935 -0.14003907 -0.020806627 -0.7460762 -0.12192768 -0.057639517
0.17750701 -0.18779427 -0.120943904 0.2011186 0.13526948 0.072475724 -0.04138824 -0.24125636
0.29325542 0.020051898 -0.23949862 -0.054852393 0.15044437 -0.10229209 -0.085140735 0.2179011
0.07256268 -0.27493408 0.31037045 0.20305528 0.32314384 -0.15750755 -0.18711136 -0.1705081
0.41461763 0.0074529606 0.10040646 0.27800325 -0.28041238 0.06627462 0.0745606 0.39506936
0.28292274 -0.12756193 0.39890414 0.038162306 -0.10137922 0.35735017 0.22790328 -0.0029552686
0.1277296 -0.04791924 0.21131922 0.009354335 -0.35283414 0.26858473 0.0069710445 0.4459635
0.17924304 0.24096292 -0.17316858 -0.23914936 -0.42032441 0.1506372 0.48239928 -0.016738525
0.064874105 0.2680757 -0.040553454 -0.36706483 -0.5079107 -0.10121489 -0.27424762 -0.11689093
-0.13502052 0.24032585 -0.08616285 -0.08164905 0.08770975 -0.067806005 -0.09831153 0.0843017
00000000: 07c9 833d 43ad 71be 7852 f33d a63d 55bd
00000010: d556 1f3d ac0e c03d d1aa 753e a649 31be
00000020: 0319 a13e 0fca 983e afce 42be 24c2 933d
00000030: 0bd4 9dbd 5d0b a83d 5765 a2be e350 e13d
00000040: f92c 01bf c72b c63d e308 eabe 4137 943c
00000050: e92b 033e 35b2 96bd 9db9 723d 937a 08bf
00000060: b707 77be 4163 8a3d cb38 45be 8440 4b3e
00000070: 724a d03d a196 5b3e d6b7 11be 8317 adbd
00000080: 2a4e 26be 5658 c4bd 8c96 3f3d 7be2 8d3e
00000090: 0105 943e 74ab a23d 27e8 8cbe 59ba c0be
000000a0: 34bb 06bf 36d1 10be 9a05 15bf 4f36 9dbd
000000b0: 82f4 39bd b47b 1d3e 1c99 083f 7d72 223c
000000c0: 9759 acbe 84e3 93be d728 6abe 5c07 fa3c
000000d0: f83f e5bd f384 dcbc 2828 633e 0686 00bd
000000e0: d9c7 b2bd ed65 4cbe 0256 a0bd e7f7 2c3e
000000f0: 4524 b73d 92c8 1d3f e3e4 713e 841f dfbd
00000100: 859b 863c 1265 863c beb2 b3be 115e ab3e
00000110: f585 2c3b 101a 803e ff26 743c 52f2 2a3d
00000120: 5f99 0c3d a78b 18be a65a 92bd 30bb 39be
00000130: 1618 d3be 46e0 f33d 494d 263e cf51 543e
00000140: 7138 76be cf0c b13e 976d 9abe bc9f 873d
00000150: 62ba 80bc 039f 08bf f051 6abe ed1b e4be
00000160: 59e3 18be f427 90bd f650 6d3e 00a8 ad3e
00000170: 0270 4fbe c67d 43be 1a53 8bbd 4a21 a73e
00000180: b99b eabd a5e0 cbbe ec1f 4bbe aa85 c1bc
00000190: ec16 acbd 66c0 5dbe da0b 27bd 0771 54be
000001a0: 5760 5ebe 08a3 dabe f483 25bf 6f98 023d
000001b0: 8385 eebd b8d8 683e 723f 773e 63d4 003f
000001c0: 06bd 8abe 2f6f 83bd 41e9 d2be 94ba 1bbf
000001d0: e4e2 c1be 2949 bf3e c30a 1abe 1ee8 8cbe
000001e0: 8275 a8be d35a 26be 2986 99be 8659 0a3e
000001f0: f107 c6be 4174 423e b86a bd3e 2445 75be
00000200: 970a 173e 48b5 c5bd e51e b7be 895e f4bd
00000210: c299 b13d 1dfc 2cbd 444e 12be 3157 ad3e
00000220: f2b9 883b 216b 8a3e 9ea1 743e fdc6 35be
00000230: e541 503e a2ac 94bd 7260 723e b614 e23e
00000240: 007d 0fbe 91fd fbbc 197b a7be 3761 c43e
00000250: 5227 f8bb 5d18 67be e291 67bd fd9d c8be
00000260: 977d 343e 58f3 563e 2fdd 10be c669 e03d
00000270: c99a f2bc 7970 92bd 6d5c 7ebd 6d66 fc3d
00000280: c994 c03d 8abc 9f3e f1e2 e23d df19 0bbd
00000290: e728 5c3e abb6 04be db93 2ebe 0af7 d53e
000002a0: 2288 363e 293a 1d3e da4c 94be 3abe 9a3c
000002b0: b4f7 0c3e 850b c6bd 4462 f03d ea58 153f
000002c0: 8f62 ddbc 35d5 013f e63b c6bd 6766 0fbe
000002d0: a972 aabc dafe 3ebf 38b5 f9bd 6a17 6cbd
000002e0: 66c4 353e 244d 40be 70b1 f7bd 09f2 4d3e
000002f0: 1584 0a3e 276e 943d b786 29bd e80b 77be
00000300: 9325 963e e143 a43c 203f 75be e7ac 60bd
00000310: 170e 1a3e 847e d1bd 445e aebd 7721 5f3e
00000320: be9b 943d 29c4 8cbe e0e8 9e3e b9ed 4f3e
00000330: 1c73 a53e a949 21be 1f9a 3fbe ad99 2ebe
00000340: c348 d43e f737 f43b e7a1 cd3d 7156 8e3e
00000350: 3692 8fbe fdba 873d 3ab3 983d 8846 ca3e
00000360: 40db 903e 989f 02be 2a3d cc3e 1450 1c3d
00000370: e99f cfbd 9af6 b63e 7a5f 693e 2ead 41bb
00000380: 8ccb 023e f746 44bd 1164 583e ed42 193c
00000390: ada6 b4be f083 893e 5c6d e43b 5455 e43e
000003a0: 7d8b 373e fcbe 763e 1b53 31be 92e3 74be
000003b0: c334 d7be a340 1a3e 0afd f63e 3b1f 89bc
000003c0: b7dc 843d 3841 893e 611b 26bd ecef bbbe
000003d0: 7006 02bf c149 cfbd 2f6a 8cbe 8364 efbd
000003e0: d242 0abe fb17 763e 2676 b0bd 9e37 a7bd
000003f0: 2ba1 b33d e0dd 8abd 8e57 c9bd 5fa6 ac3d

onnx::LSTM_116 f4 [1, 64]
0.050140798 0.10129164 0.14058073 0.02608777 0.08126212 0.27185634 0.19990402 0.20388815
0.095478356 0.030897295 0.08964477 0.021574788 0.077882096 0.3478477 0.18724248 0.2518689
0.9517857 0.9275257 1.0163546 0.84908855 0.8178147 0.9880673 0.8221678 1.0677984
-0.1124621 -0.093189724 -0.10387116 -0.030551039 0.043710545 0.07685183 0.17602862 -0.04925873
0.0 0.0 0.0 0.0 0.0 0.0 0.0 0.0
0.0 0.0 0.0 0.0 0.0 0.0 0.0 0.0
0.0 0.0 0.0 0.0 0.0 0.0 0.0 0.0
0.0 0.0 0.0 0.0 0.0 0.0 0.0 0.0
00000000: 7060 4d3d fe71 cf3d 65f4 0f3e 05b6 d53c
00000010: c16c a63d c130 8b3e a4b3 4c3e 0ec8 503e
00000020: 288a c33d 531c fd3c ad97 b73d 9cbd b03c
00000030: a680 9f3d 1819 b23e 7ebc 3f3e f6f4 803e
00000040: 3aa8 733f 5372 6d3f e817 823f de5d 593f
00000050: 4e5c 513f fbf1 7c3f 9779 523f 9ead 883f
00000060: 8852 e6bd 41da bebd 67ba d4bd 2c46 fabc
00000070: d409 333d 7e64 9d3d d940 343e 86c3 49bd
00000080: 0000 0000 0000 0000 0000 0000 0000 0000
00000090: 0000 0000 0000 0000 0000 0000 0000 0000
000000a0: 0000 0000 0000 0000 0000 0000 0000 0000
000000b0: 0000 0000 0000 0000 0000 0000 0000 0000
000000c0: 0000 0000 0000 0000 0000 0000 0000 0000
000000d0: 0000 0000 0000 0000 0000 0000 0000 0000
000000e0: 0000 0000 0000 0000 0000 0000 0000 0000
000000f0: 0000 0000 0000 0000 0000 0000 0000 0000

onnx::MatMul_117 f4 [2, 16]
-0.43003905 0.37106043 0.5759625 -0.35286266 0.54342115 0.34306082 -0.4212816 0.116090134
-0.11163124 -0.37349173 0.7008972 -0.52139384 -0.20303789 -0.016001413 0.3950505 -0.28826937
-0.59441787 0.3661562 -0.5188945 -0.11832983 0.17831965 -0.38470605 -0.19262594 -0.22656386
-0.4598264 -0.6143053 0.08331218 -0.71063966 -0.29680586 -0.18313043 0.4734914 0.5085277
00000000: 142e dcbe a2fb bd3e 4772 133f 6aaa b4be
00000010: a61d 0b3f aba5 af3e 39b2 d7be aac0 ed3d
00000020: eb9e e4bd 4f3a bfbe 006e 333f 117a 05bf
00000030: 2ae9 4fbe 6515 83bc 0f44 ca3e 0b98 93be
00000040: c52b 18bf d378 bb3e 45d6 04bf e956 f2bd
00000050: 6d99 363e 31f8 c4be bc3f 45be 5b00 68be
00000060: 5e6e ebbe 1d43 1dbf 949f aa3d 7bec 35bf
00000070: f0f6 97be 8b86 3bbe 776d f23e df2e 023f

onnx::MatMul_118 f4 [8, 16]
0.40000662 -0.2262044 -0.07668943 -0.43368778 0.17759514 -0.2361971 0.42111823 -0.3118819
-0.35495907 0.32815593 0.38319084 -0.19270764 0.079686455 -0.20989007 0.26826835 -0.41245398
-0.38199708 0.53035575 0.19519573 0.022557773 0.04411551 0.52776986 -0.42695186 -0.034250528
-0.20022494 -0.4661369 -0.18097684 -0.17235266 0.44161737 0.037051573 0.32764566 -0.07404882
-0.2119476 0.0077375914 0.38953045 0.20110162 -0.04099911 -0.0036626838 0.25863793 -0.07697855
-0.40644515 0.19606028 0.047912173 -0.40294555 0.02464578 0.04388372 -0.1554781 0.14139217
0.43473557 -0.07971558 -0.54564583 0.2847936 0.411712 0.41276222 -0.42685005 -0.17008124
0.45391414 -0.5490414 -0.44882572 -0.05115876 -0.25806177 -0.2157997 0.19500071 0.19723424
0.19015379 0.24398154 0.32943064 -0.34596097 0.4352398 -0.08040632 -0.41302028 0.24902728
-0.3102236 -0.15697165 0.39970395 0.44306156 0.27300218 0.22372258 -0.19473448 0.1366194
0.4333032 -0.22658405 -0.23075715 0.47782066 0.50758094 0.6913438 -0.6532711 -0.4680727
-0.13613224 0.4562484 0.3801042 -0.44250438 0.22476846 -0.6724478 0.33003372 -0.2752626
-0.5704989 -0.2900038 0.18497644 0.27334377 -0.2667276 -0.46460372 -0.15330322 -0.066494964
0.16491954 -0.21116726 0.059331916 0.40038067 -0.36305836 -0.18527283 0.40412724 -0.09641413
-0.40179408 -0.24409215 -0.11278575 -0.3162115 0.19094175 0.32085216 0.10208783 -0.5402824
-0.24763235 -0.21895508 -0.2427574 0.005833522 0.23910272 -0.09828397 0.58352435 0.4748214
00000000: abcd cc3e 20a2 67be 590f 9dbd 530c debe
00000010: 80db 353e a7dd 71be cf9c d73e fcae 9fbe
00000020: 32bd b5be 0e04 a83e 9731 c43e 2755 45be
00000030: a732 a33d 6ced 56be 785a 893e 2b2d d3be
00000040: 1f95 c3be 65c5 073f 64e1 473e 14cb b83c
00000050: 77b2 343d ed1b 073f 6f99 dabe 484a 0cbd
00000060: c407 4dbe 7fa9 eebe fe51 39be 377d 30be
00000070: ac1b e23e 64c3 173d 2cc1 a73e e8a6 97bd
00000080: cb08 59be 9f8b fd3b 8970 c73e 95ed 4d3e
00000090: afee 27bd a309 70bb 316c 843e eea6 9dbd
000000a0: 9419 d0be 07c4 483e 8e3f 443d e14e cebe
000000b0: f2e5 c93c 6abf 333d a735 1fbe 1cc9 103e
000000c0: a995 de3e ec41 a3bd 72af 0bbf 77d0 913e
000000d0: eacb d23e 9255 d33e 178c dabe c729 2ebe
000000e0: 6f67 e83e fa8d 0cbf 7ccc e5be d98b 51bd
000000f0: ac20 84be 99fa 5cbe 44ae 473e c6f7 493e
00000100: adb7 423e 4cd6 793e 22ab a83e cc21 b1be
00000110: c0d7 de3e 12ac a4bd 6577 d3be 0201 7f3e
00000120: a1d5 9ebe 2dbd 20be ffa5 cc3e f7d8 e23e
00000130: f1c6 8b3e 8817 653e 7a68 47be f5e5 0b3e
00000140: ebd9 dd3e a605 68be 9a4b 6cbe e9a4 f43e
00000150: d3f0 013f e8fb 303f c63c 27bf 3aa7 efbe
00000160: 4066 0bbe 6499 e93e 059d c23e ef8f e2be
00000170: b429 663e 8a25 2cbf 2efa a83e 38ef 8cbe
00000180: 370c 12bf 617b 94be 776a 3d3e b7f3 8b3e
00000190: 8590 88be 8ae0 edbe 85fb 1cbe 832e 88bd
000001a0: abe0 283e 3b3c 58be 0606 733d b2fe cc3e
000001b0: c9e2 b9be 29b8 3dbe c4e9 ce3e c574 c5bd
000001c0: f4b7 cdbe 4bf3 79be 37fc e6bd 79e6 a1be
000001d0: 3c86 433e bc46 a43e 6d13 d13d f34f 0abf
000001e0: 5693 7dbe c335 60be 6595 78be 2127 bf3b
000001f0: 58d7 743e 1b49 c9bd da61 153f ca1b f33e

onnx::MatMul_119 f4 [8, 1]
-0.8754685 0.2855239 -0.67590404 -0.24407372 0.12858029 -0.35388032 -0.82023937 0.24660714
00000000: b41e 60bf 3030 923e 0c08 2dbf 76ee 79be
00000010: 8daa 033e cd2f b5be 35fb 51bf 9586 7c3e
